…
snapshot: 0
snapshot_prefix: "vgg16_rpn"
average_loss: 100
I0522 14:48:01.019894  2970 solver.cpp:92] Creating training net from train_net file: models/pascal_voc/VGG16/faster_rcnn_alt_opt/stage1_rpn_train.pt
I0522 14:48:01.020198  2970 net.cpp:51] Initializing net from parameters: 
name: "VGG_ILSVRC_16_layers"
state {
  phase: TRAIN
}
layer {
  name: "input-data"
  type: "Python"
  top: "data"
  top: "im_info"
  top: "gt_boxes"
  python_param {
    module: "roi_data_layer.layer"
    layer: "RoIDataLayer"
    param_str: "\'num_classes\': 3"
  }
}
layer {
  name: "conv1_1"
  type: "Convolution"
  bottom: "data"
  top: "conv1_1"
  param {
    lr_mult: 0
    decay_mult: 0
  }
  param {
    lr_mult: 0
    decay_mult: 0
  }
  convolution_param {
    num_output: 64
    pad: 1
    kernel_size: 3
  }
}
layer {
  name: "relu1_1"
  type: "ReLU"
  bottom: "conv1_1"
  top: "conv1_1"
}
layer {
  name: "conv1_2"
  type: "Convolution"
  bottom: "conv1_1"
  top: "conv1_2"
  param {
    lr_mult: 0
    decay_mult: 0
  }
  param {
    lr_mult: 0
    decay_mult: 0
  }
  convolution_param {
    num_output: 64
    pad: 1
    kernel_size: 3
  }
}
layer {
  name: "relu1_2"
  type: "ReLU"
  bottom: "conv1_2"
  top: "conv1_2"
}
layer {
  name: "pool1"
  type: "Pooling"
  bottom: "conv1_2"
  top: "pool1"
  pooling_param {
    pool: MAX
    kernel_size: 2
    stride: 2
  }
}
layer {
  name: "conv2_1"
  type: "Convolution"
  bottom: "pool1"
  top: "conv2_1"
  param {
    lr_mult: 0
    decay_mult: 0
  }
  param {
    lr_mult: 0
    decay_mult: 0
  }
  convolution_param {
    num_output: 128
    pad: 1
    kernel_size: 3
  }
}
layer {
  name: "relu2_1"
  type: "ReLU"
  bottom: "conv2_1"
  top: "conv2_1"
}
layer {
  name: "conv2_2"
  type: "Convolution"
  bottom: "conv2_1"
  top: "conv2_2"
  param {
    lr_mult: 0
    decay_mult: 0
  }
  param {
    lr_mult: 0
    decay_mult: 0
  }
  convolution_param {
    num_output: 128
    pad: 1
    kernel_size: 3
  }
}
layer {
  name: "relu2_2"
  type: "ReLU"
  bottom: "conv2_2"
  top: "conv2_2"
}
layer {
  name: "pool2"
  type: "Pooling"
  bottom: "conv2_2"
  top: "pool2"
  pooling_param {
    pool: MAX
    kernel_size: 2
    stride: 2
  }
}
layer {
  name: "conv3_1"
  type: "Convolution"
  bottom: "pool2"
  top: "conv3_1"
  param {
    lr_mult: 1
  }
  param {
    lr_mult: 2
  }
  convolution_param {
    num_output: 256
    pad: 1
    kernel_size: 3
  }
}
layer {
  name: "relu3_1"
  type: "ReLU"
  bottom: "conv3_1"
  top: "conv3_1"
}
layer {
  name: "conv3_2"
  type: "Convolution"
  bottom: "conv3_1"
  top: "conv3_2"
  param {
    lr_mult: 1
  }
  param {
    lr_mult: 2
  }
  convolution_param {
    num_output: 256
    pad: 1
    kernel_size: 3
  }
}
layer {
  name: "relu3_2"
  type: "ReLU"
  bottom: "conv3_2"
  top: "conv3_2"
}
layer {
  name: "conv3_3"
  type: "Convolution"
  bottom: "conv3_2"
  top: "conv3_3"
  param {
    lr_mult: 1
  }
  param {
    lr_mult: 2
  }
  convolution_param {
    num_output: 256
    pad: 1
    kernel_size: 3
  }
}
layer {
  name: "relu3_3"
  type: "ReLU"
  bottom: "conv3_3"
  top: "conv3_3"
}
layer {
  name: "pool3"
  type: "Pooling"
  bottom: "conv3_3"
  top: "pool3"
  pooling_param {
    pool: MAX
    kernel_size: 2
    stride: 2
  }
}
layer {
  name: "conv4_1"
  type: "Convolution"
  bottom: "pool3"
  top: "conv4_1"
  param {
    lr_mult: 1
  }
  param {
    lr_mult: 2
  }
  convolution_param {
    num_output: 512
    pad: 1
    kernel_size: 3
  }
}
layer {
  name: "relu4_1"
  type: "ReLU"
  bottom: "conv4_1"
  top: "conv4_1"
}
layer {
  name: "conv4_2"
  type: "Convolution"
  bottom: "conv4_1"
  top: "conv4_2"
  param {
    lr_mult: 1
  }
  param {
    lr_mult: 2
  }
  convolution_param {
    num_output: 512
    pad: 1
    kernel_size: 3
  }
}
layer {
  name: "relu4_2"
  type: "ReLU"
  bottom: "conv4_2"
  top: "conv4_2"
}
layer {
  name: "conv4_3"
  type: "Convolution"
  bottom: "conv4_2"
  top: "conv4_3"
  param {
    lr_mult: 1
  }
  param {
    lr_mult: 2
  }
  convolution_param {
    num_output: 512
    pad: 1
    kernel_size: 3
  }
}
layer {
  name: "relu4_3"
  type: "ReLU"
  bottom: "conv4_3"
  top: "conv4_3"
}
layer {
  name: "pool4"
  type: "Pooling"
  bottom: "conv4_3"
  top: "pool4"
  pooling_param {
    pool: MAX
    kernel_size: 2
    stride: 2
  }
}
layer {
  name: "conv5_1"
  type: "Convolution"
  bottom: "pool4"
  top: "conv5_1"
  param {
    lr_mult: 1
  }
  param {
    lr_mult: 2
  }
  convolution_param {
    num_output: 512
    pad: 1
    kernel_size: 3
  }
}
layer {
  name: "relu5_1"
  type: "ReLU"
  bottom: "conv5_1"
  top: "conv5_1"
}
layer {
  name: "conv5_2"
  type: "Convolution"
  bottom: "conv5_1"
  top: "conv5_2"
  param {
    lr_mult: 1
  }
  param {
    lr_mult: 2
  }
  convolution_param {
    num_output: 512
    pad: 1
    kernel_size: 3
  }
}
layer {
  name: "relu5_2"
  type: "ReLU"
  bottom: "conv5_2"
  top: "conv5_2"
}
layer {
  name: "conv5_3"
  type: "Convolution"
  bottom: "conv5_2"
  top: "conv5_3"
  param {
    lr_mult: 1
  }
  param {
    lr_mult: 2
  }
  convolution_param {
    num_output: 512
    pad: 1
    kernel_size: 3
  }
}
layer {
  name: "relu5_3"
  type: "ReLU"
  bottom: "conv5_3"
  top: "conv5_3"
}
layer {
  name: "rpn_conv/3x3"
  type: "Convolution"
  bottom: "conv5_3"
  top: "rpn/output"
  param {
    lr_mult: 1
  }
  param {
    lr_mult: 2
  }
  convolution_param {
    num_output: 512
    pad: 1
    kernel_size: 3
    stride: 1
    weight_filler {
      type: "gaussian"
      std: 0.01
    }
    bias_filler {
      type: "constant"
      value: 0
    }
  }
}
layer {
  name: "rpn_relu/3x3"
  type: "ReLU"
  bottom: "rpn/output"
  top: "rpn/output"
}
layer {
  name: "rpn_cls_score"
  type: "Convolution"
  bottom: "rpn/output"
  top: "rpn_cls_score"
  param {
    lr_mult: 1
  }
  param {
    lr_mult: 2
  }
  convolution_param {
    num_output: 18
    pad: 0
    kernel_size: 1
    stride: 1
    weight_filler {
      type: "gaussian"
      std: 0.01
    }
    bias_filler {
      type: "constant"
      value: 0
    }
  }
}
layer {
  name: "rpn_bbox_pred"
  type: "Convolution"
  bottom: "rpn/output"
  top: "rpn_bbox_pred"
  param {
    lr_mult: 1
  }
  param {
    lr_mult: 2
  }
  convolution_param {
    num_output: 36
    pad: 0
    kernel_size: 1
    stride: 1
    weight_filler {
      type: "gaussian"
      std: 0.01
    }
    bias_filler {
      type: "constant"
      value: 0
    }
  }
}
layer {
  name: "rpn_cls_score_reshape"
  type: "Reshape"
  bottom: "rpn_cls_score"
  top: "rpn_cls_score_reshape"
  reshape_param {
    shape {
      dim: 0
      dim: 2
      dim: -1
      dim: 0
    }
  }
}
layer {
  name: "rpn-data"
  type: "Python"
  bottom: "rpn_cls_score"
  bottom: "gt_boxes"
  bottom: "im_info"
  bottom: "data"
  top: "rpn_labels"
  top: "rpn_bbox_targets"
  top: "rpn_bbox_inside_weights"
  top: "rpn_bbox_outside_weights"
  python_param {
    module: "rpn.anchor_target_layer"
    layer: "AnchorTargetLayer"
    param_str: "\'feat_stride\': 16"
  }
}
layer {
  name: "rpn_loss_cls"
  type: "SoftmaxWithLoss"
  bottom: "rpn_cls_score_reshape"
  bottom: "rpn_labels"
  top: "rpn_cls_loss"
  loss_weight: 1
  propagate_down: true
  propagate_down: false
  loss_param {
    ignore_label: -1
    normalize: true
  }
}
layer {
  name: "rpn_loss_bbox"
  type: "SmoothL1Loss"
  bottom: "rpn_bbox_pred"
  bottom: "rpn_bbox_targets"
  bottom: "rpn_bbox_inside_weights"
  bottom: "rpn_bbox_outside_weights"
  top: "rpn_loss_bbox"
  loss_weight: 1
  smooth_l1_loss_param {
    sigma: 3
  }
}
layer {
  name: "dummy_roi_pool_conv5"
  type: "DummyData"
  top: "dummy_roi_pool_conv5"
  dummy_data_param {
    data_filler {
      type: "constant"
      value: 0
    }
    shape {
      dim: 1
      dim: 25088
    }
  }
}
layer {
  name: "fc6"
  type: "InnerProduct"
  bottom: "dummy_roi_pool_conv5"
  top: "fc6"
  param {
    lr_mult: 0
    decay_mult: 0
  }
  param {
    lr_mult: 0
    decay_mult: 0
  }
  inner_product_param {
    num_output: 4096
  }
}
layer {
  name: "relu6"
  type: "ReLU"
  bottom: "fc6"
  top: "fc6"
}
layer {
  name: "drop6"
  type: "Dropout"
  bottom: "fc6"
  top: "fc6"
  dropout_param {
    dropout_ratio: 0.5
  }
}
layer {
  name: "fc7"
  type: "InnerProduct"
  bottom: "fc6"
  top: "fc7"
  param {
    lr_mult: 0
    decay_mult: 0
  }
  param {
    lr_mult: 0
    decay_mult: 0
  }
  inner_product_param {
    num_output: 4096
  }
}
layer {
  name: "silence_fc7"
  type: "Silence"
  bottom: "fc7"
}
I0522 14:48:01.020301  2970 layer_factory.hpp:77] Creating layer input-data
I0522 14:48:01.020687  2970 net.cpp:84] Creating Layer input-data
I0522 14:48:01.020694  2970 net.cpp:380] input-data -> data
I0522 14:48:01.020715  2970 net.cpp:380] input-data -> im_info
I0522 14:48:01.020720  2970 net.cpp:380] input-data -> gt_boxes
RoiDataLayer: name_to_top: {'gt_boxes': 2, 'data': 0, 'im_info': 1}
I0522 14:48:01.021651  2970 net.cpp:122] Setting up input-data
I0522 14:48:01.021659  2970 net.cpp:129] Top shape: 1 3 600 1000 (1800000)
I0522 14:48:01.021662  2970 net.cpp:129] Top shape: 1 3 (3)
I0522 14:48:01.021666  2970 net.cpp:129] Top shape: 1 4 (4)
I0522 14:48:01.021667  2970 net.cpp:137] Memory required for data: 7200028
I0522 14:48:01.021669  2970 layer_factory.hpp:77] Creating layer data_input-data_0_split
I0522 14:48:01.021674  2970 net.cpp:84] Creating Layer data_input-data_0_split
I0522 14:48:01.021677  2970 net.cpp:406] data_input-data_0_split <- data
I0522 14:48:01.021680  2970 net.cpp:380] data_input-data_0_split -> data_input-data_0_split_0
I0522 14:48:01.021685  2970 net.cpp:380] data_input-data_0_split -> data_input-data_0_split_1
I0522 14:48:01.021706  2970 net.cpp:122] Setting up data_input-data_0_split
I0522 14:48:01.021710  2970 net.cpp:129] Top shape: 1 3 600 1000 (1800000)
I0522 14:48:01.021713  2970 net.cpp:129] Top shape: 1 3 600 1000 (1800000)
I0522 14:48:01.021715  2970 net.cpp:137] Memory required for data: 21600028
I0522 14:48:01.021716  2970 layer_factory.hpp:77] Creating layer conv1_1
I0522 14:48:01.021723  2970 net.cpp:84] Creating Layer conv1_1
I0522 14:48:01.021724  2970 net.cpp:406] conv1_1 <- data_input-data_0_split_0
I0522 14:48:01.021728  2970 net.cpp:380] conv1_1 -> conv1_1
I0522 14:48:01.185732  2970 net.cpp:122] Setting up conv1_1
I0522 14:48:01.185748  2970 net.cpp:129] Top shape: 1 64 600 1000 (38400000)
I0522 14:48:01.185751  2970 net.cpp:137] Memory required for data: 175200028
I0522 14:48:01.185761  2970 layer_factory.hpp:77] Creating layer relu1_1
I0522 14:48:01.185767  2970 net.cpp:84] Creating Layer relu1_1
I0522 14:48:01.185770  2970 net.cpp:406] relu1_1 <- conv1_1
I0522 14:48:01.185773  2970 net.cpp:367] relu1_1 -> conv1_1 (in-place)
I0522 14:48:01.185886  2970 net.cpp:122] Setting up relu1_1
I0522 14:48:01.185891  2970 net.cpp:129] Top shape: 1 64 600 1000 (38400000)
I0522 14:48:01.185894  2970 net.cpp:137] Memory required for data: 328800028
I0522 14:48:01.185895  2970 layer_factory.hpp:77] Creating layer conv1_2
I0522 14:48:01.185902  2970 net.cpp:84] Creating Layer conv1_2
I0522 14:48:01.185904  2970 net.cpp:406] conv1_2 <- conv1_1
I0522 14:48:01.185907  2970 net.cpp:380] conv1_2 -> conv1_2
I0522 14:48:01.187636  2970 net.cpp:122] Setting up conv1_2
I0522 14:48:01.187645  2970 net.cpp:129] Top shape: 1 64 600 1000 (38400000)
I0522 14:48:01.187647  2970 net.cpp:137] Memory required for data: 482400028
I0522 14:48:01.187652  2970 layer_factory.hpp:77] Creating layer relu1_2
I0522 14:48:01.187656  2970 net.cpp:84] Creating Layer relu1_2
I0522 14:48:01.187659  2970 net.cpp:406] relu1_2 <- conv1_2
I0522 14:48:01.187662  2970 net.cpp:367] relu1_2 -> conv1_2 (in-place)
I0522 14:48:01.187770  2970 net.cpp:122] Setting up relu1_2
I0522 14:48:01.187775  2970 net.cpp:129] Top shape: 1 64 600 1000 (38400000)
I0522 14:48:01.187777  2970 net.cpp:137] Memory required for data: 636000028
I0522 14:48:01.187779  2970 layer_factory.hpp:77] Creating layer pool1
I0522 14:48:01.187783  2970 net.cpp:84] Creating Layer pool1
I0522 14:48:01.187785  2970 net.cpp:406] pool1 <- conv1_2
I0522 14:48:01.187788  2970 net.cpp:380] pool1 -> pool1
I0522 14:48:01.187813  2970 net.cpp:122] Setting up pool1
I0522 14:48:01.187816  2970 net.cpp:129] Top shape: 1 64 300 500 (9600000)
I0522 14:48:01.187819  2970 net.cpp:137] Memory required for data: 674400028
I0522 14:48:01.187820  2970 layer_factory.hpp:77] Creating layer conv2_1
I0522 14:48:01.187824  2970 net.cpp:84] Creating Layer conv2_1
I0522 14:48:01.187827  2970 net.cpp:406] conv2_1 <- pool1
I0522 14:48:01.187830  2970 net.cpp:380] conv2_1 -> conv2_1
I0522 14:48:01.188997  2970 net.cpp:122] Setting up conv2_1
I0522 14:48:01.189004  2970 net.cpp:129] Top shape: 1 128 300 500 (19200000)
I0522 14:48:01.189007  2970 net.cpp:137] Memory required for data: 751200028
I0522 14:48:01.189013  2970 layer_factory.hpp:77] Creating layer relu2_1
I0522 14:48:01.189018  2970 net.cpp:84] Creating Layer relu2_1
I0522 14:48:01.189019  2970 net.cpp:406] relu2_1 <- conv2_1
I0522 14:48:01.189023  2970 net.cpp:367] relu2_1 -> conv2_1 (in-place)
I0522 14:48:01.189129  2970 net.cpp:122] Setting up relu2_1
I0522 14:48:01.189136  2970 net.cpp:129] Top shape: 1 128 300 500 (19200000)
I0522 14:48:01.189137  2970 net.cpp:137] Memory required for data: 828000028
I0522 14:48:01.189139  2970 layer_factory.hpp:77] Creating layer conv2_2
I0522 14:48:01.189143  2970 net.cpp:84] Creating Layer conv2_2
I0522 14:48:01.189146  2970 net.cpp:406] conv2_2 <- conv2_1
I0522 14:48:01.189148  2970 net.cpp:380] conv2_2 -> conv2_2
I0522 14:48:01.189923  2970 net.cpp:122] Setting up conv2_2
I0522 14:48:01.189930  2970 net.cpp:129] Top shape: 1 128 300 500 (19200000)
I0522 14:48:01.189934  2970 net.cpp:137] Memory required for data: 904800028
I0522 14:48:01.189937  2970 layer_factory.hpp:77] Creating layer relu2_2
I0522 14:48:01.189940  2970 net.cpp:84] Creating Layer relu2_2
I0522 14:48:01.189942  2970 net.cpp:406] relu2_2 <- conv2_2
I0522 14:48:01.189946  2970 net.cpp:367] relu2_2 -> conv2_2 (in-place)
I0522 14:48:01.190048  2970 net.cpp:122] Setting up relu2_2
I0522 14:48:01.190053  2970 net.cpp:129] Top shape: 1 128 300 500 (19200000)
I0522 14:48:01.190055  2970 net.cpp:137] Memory required for data: 981600028
I0522 14:48:01.190057  2970 layer_factory.hpp:77] Creating layer pool2
I0522 14:48:01.190060  2970 net.cpp:84] Creating Layer pool2
I0522 14:48:01.190062  2970 net.cpp:406] pool2 <- conv2_2
I0522 14:48:01.190065  2970 net.cpp:380] pool2 -> pool2
I0522 14:48:01.190089  2970 net.cpp:122] Setting up pool2
I0522 14:48:01.190093  2970 net.cpp:129] Top shape: 1 128 150 250 (4800000)
I0522 14:48:01.190094  2970 net.cpp:137] Memory required for data: 1000800028
I0522 14:48:01.190096  2970 layer_factory.hpp:77] Creating layer conv3_1
I0522 14:48:01.190100  2970 net.cpp:84] Creating Layer conv3_1
I0522 14:48:01.190102  2970 net.cpp:406] conv3_1 <- pool2
I0522 14:48:01.190105  2970 net.cpp:380] conv3_1 -> conv3_1
I0522 14:48:01.191314  2970 net.cpp:122] Setting up conv3_1
I0522 14:48:01.191323  2970 net.cpp:129] Top shape: 1 256 150 250 (9600000)
I0522 14:48:01.191325  2970 net.cpp:137] Memory required for data: 1039200028
I0522 14:48:01.191330  2970 layer_factory.hpp:77] Creating layer relu3_1
I0522 14:48:01.191334  2970 net.cpp:84] Creating Layer relu3_1
I0522 14:48:01.191336  2970 net.cpp:406] relu3_1 <- conv3_1
I0522 14:48:01.191339  2970 net.cpp:367] relu3_1 -> conv3_1 (in-place)
I0522 14:48:01.191550  2970 net.cpp:122] Setting up relu3_1
I0522 14:48:01.191557  2970 net.cpp:129] Top shape: 1 256 150 250 (9600000)
I0522 14:48:01.191560  2970 net.cpp:137] Memory required for data: 1077600028
I0522 14:48:01.191561  2970 layer_factory.hpp:77] Creating layer conv3_2
I0522 14:48:01.191565  2970 net.cpp:84] Creating Layer conv3_2
I0522 14:48:01.191568  2970 net.cpp:406] conv3_2 <- conv3_1
I0522 14:48:01.191571  2970 net.cpp:380] conv3_2 -> conv3_2
I0522 14:48:01.192816  2970 net.cpp:122] Setting up conv3_2
I0522 14:48:01.192823  2970 net.cpp:129] Top shape: 1 256 150 250 (9600000)
I0522 14:48:01.192826  2970 net.cpp:137] Memory required for data: 1116000028
I0522 14:48:01.192831  2970 layer_factory.hpp:77] Creating layer relu3_2
I0522 14:48:01.192833  2970 net.cpp:84] Creating Layer relu3_2
I0522 14:48:01.192836  2970 net.cpp:406] relu3_2 <- conv3_2
I0522 14:48:01.192838  2970 net.cpp:367] relu3_2 -> conv3_2 (in-place)
I0522 14:48:01.193054  2970 net.cpp:122] Setting up relu3_2
I0522 14:48:01.193061  2970 net.cpp:129] Top shape: 1 256 150 250 (9600000)
I0522 14:48:01.193063  2970 net.cpp:137] Memory required for data: 1154400028
I0522 14:48:01.193065  2970 layer_factory.hpp:77] Creating layer conv3_3
I0522 14:48:01.193071  2970 net.cpp:84] Creating Layer conv3_3
I0522 14:48:01.193073  2970 net.cpp:406] conv3_3 <- conv3_2
I0522 14:48:01.193076  2970 net.cpp:380] conv3_3 -> conv3_3
I0522 14:48:01.194466  2970 net.cpp:122] Setting up conv3_3
I0522 14:48:01.194475  2970 net.cpp:129] Top shape: 1 256 150 250 (9600000)
I0522 14:48:01.194478  2970 net.cpp:137] Memory required for data: 1192800028
I0522 14:48:01.194481  2970 layer_factory.hpp:77] Creating layer relu3_3
I0522 14:48:01.194485  2970 net.cpp:84] Creating Layer relu3_3
I0522 14:48:01.194489  2970 net.cpp:406] relu3_3 <- conv3_3
I0522 14:48:01.194491  2970 net.cpp:367] relu3_3 -> conv3_3 (in-place)
I0522 14:48:01.194608  2970 net.cpp:122] Setting up relu3_3
I0522 14:48:01.194614  2970 net.cpp:129] Top shape: 1 256 150 250 (9600000)
I0522 14:48:01.194617  2970 net.cpp:137] Memory required for data: 1231200028
I0522 14:48:01.194618  2970 layer_factory.hpp:77] Creating layer pool3
I0522 14:48:01.194622  2970 net.cpp:84] Creating Layer pool3
I0522 14:48:01.194623  2970 net.cpp:406] pool3 <- conv3_3
I0522 14:48:01.194628  2970 net.cpp:380] pool3 -> pool3
I0522 14:48:01.194654  2970 net.cpp:122] Setting up pool3
I0522 14:48:01.194658  2970 net.cpp:129] Top shape: 1 256 75 125 (2400000)
I0522 14:48:01.194660  2970 net.cpp:137] Memory required for data: 1240800028
I0522 14:48:01.194663  2970 layer_factory.hpp:77] Creating layer conv4_1
I0522 14:48:01.194669  2970 net.cpp:84] Creating Layer conv4_1
I0522 14:48:01.194670  2970 net.cpp:406] conv4_1 <- pool3
I0522 14:48:01.194672  2970 net.cpp:380] conv4_1 -> conv4_1
I0522 14:48:01.197515  2970 net.cpp:122] Setting up conv4_1
I0522 14:48:01.197528  2970 net.cpp:129] Top shape: 1 512 75 125 (4800000)
I0522 14:48:01.197530  2970 net.cpp:137] Memory required for data: 1260000028
I0522 14:48:01.197535  2970 layer_factory.hpp:77] Creating layer relu4_1
I0522 14:48:01.197541  2970 net.cpp:84] Creating Layer relu4_1
I0522 14:48:01.197543  2970 net.cpp:406] relu4_1 <- conv4_1
I0522 14:48:01.197548  2970 net.cpp:367] relu4_1 -> conv4_1 (in-place)
I0522 14:48:01.197670  2970 net.cpp:122] Setting up relu4_1
I0522 14:48:01.197676  2970 net.cpp:129] Top shape: 1 512 75 125 (4800000)
I0522 14:48:01.197679  2970 net.cpp:137] Memory required for data: 1279200028
I0522 14:48:01.197679  2970 layer_factory.hpp:77] Creating layer conv4_2
I0522 14:48:01.197685  2970 net.cpp:84] Creating Layer conv4_2
I0522 14:48:01.197687  2970 net.cpp:406] conv4_2 <- conv4_1
I0522 14:48:01.197690  2970 net.cpp:380] conv4_2 -> conv4_2
I0522 14:48:01.201004  2970 net.cpp:122] Setting up conv4_2
I0522 14:48:01.201021  2970 net.cpp:129] Top shape: 1 512 75 125 (4800000)
I0522 14:48:01.201023  2970 net.cpp:137] Memory required for data: 1298400028
I0522 14:48:01.201032  2970 layer_factory.hpp:77] Creating layer relu4_2
I0522 14:48:01.201037  2970 net.cpp:84] Creating Layer relu4_2
I0522 14:48:01.201040  2970 net.cpp:406] relu4_2 <- conv4_2
I0522 14:48:01.201045  2970 net.cpp:367] relu4_2 -> conv4_2 (in-place)
I0522 14:48:01.201160  2970 net.cpp:122] Setting up relu4_2
I0522 14:48:01.201167  2970 net.cpp:129] Top shape: 1 512 75 125 (4800000)
I0522 14:48:01.201169  2970 net.cpp:137] Memory required for data: 1317600028
I0522 14:48:01.201171  2970 layer_factory.hpp:77] Creating layer conv4_3
I0522 14:48:01.201176  2970 net.cpp:84] Creating Layer conv4_3
I0522 14:48:01.201179  2970 net.cpp:406] conv4_3 <- conv4_2
I0522 14:48:01.201182  2970 net.cpp:380] conv4_3 -> conv4_3
I0522 14:48:01.204339  2970 net.cpp:122] Setting up conv4_3
I0522 14:48:01.204357  2970 net.cpp:129] Top shape: 1 512 75 125 (4800000)
I0522 14:48:01.204360  2970 net.cpp:137] Memory required for data: 1336800028
I0522 14:48:01.204365  2970 layer_factory.hpp:77] Creating layer relu4_3
I0522 14:48:01.204371  2970 net.cpp:84] Creating Layer relu4_3
I0522 14:48:01.204373  2970 net.cpp:406] relu4_3 <- conv4_3
I0522 14:48:01.204378  2970 net.cpp:367] relu4_3 -> conv4_3 (in-place)
I0522 14:48:01.204496  2970 net.cpp:122] Setting up relu4_3
I0522 14:48:01.204502  2970 net.cpp:129] Top shape: 1 512 75 125 (4800000)
I0522 14:48:01.204504  2970 net.cpp:137] Memory required for data: 1356000028
I0522 14:48:01.204506  2970 layer_factory.hpp:77] Creating layer pool4
I0522 14:48:01.204510  2970 net.cpp:84] Creating Layer pool4
I0522 14:48:01.204514  2970 net.cpp:406] pool4 <- conv4_3
I0522 14:48:01.204516  2970 net.cpp:380] pool4 -> pool4
I0522 14:48:01.204545  2970 net.cpp:122] Setting up pool4
I0522 14:48:01.204548  2970 net.cpp:129] Top shape: 1 512 38 63 (1225728)
I0522 14:48:01.204550  2970 net.cpp:137] Memory required for data: 1360902940
I0522 14:48:01.204552  2970 layer_factory.hpp:77] Creating layer conv5_1
I0522 14:48:01.204557  2970 net.cpp:84] Creating Layer conv5_1
I0522 14:48:01.204560  2970 net.cpp:406] conv5_1 <- pool4
I0522 14:48:01.204563  2970 net.cpp:380] conv5_1 -> conv5_1
I0522 14:48:01.207665  2970 net.cpp:122] Setting up conv5_1
I0522 14:48:01.207682  2970 net.cpp:129] Top shape: 1 512 38 63 (1225728)
I0522 14:48:01.207684  2970 net.cpp:137] Memory required for data: 1365805852
I0522 14:48:01.207690  2970 layer_factory.hpp:77] Creating layer relu5_1
I0522 14:48:01.207696  2970 net.cpp:84] Creating Layer relu5_1
I0522 14:48:01.207700  2970 net.cpp:406] relu5_1 <- conv5_1
I0522 14:48:01.207702  2970 net.cpp:367] relu5_1 -> conv5_1 (in-place)
I0522 14:48:01.207944  2970 net.cpp:122] Setting up relu5_1
I0522 14:48:01.207952  2970 net.cpp:129] Top shape: 1 512 38 63 (1225728)
I0522 14:48:01.207953  2970 net.cpp:137] Memory required for data: 1370708764
I0522 14:48:01.207955  2970 layer_factory.hpp:77] Creating layer conv5_2
I0522 14:48:01.207962  2970 net.cpp:84] Creating Layer conv5_2
I0522 14:48:01.207964  2970 net.cpp:406] conv5_2 <- conv5_1
I0522 14:48:01.207968  2970 net.cpp:380] conv5_2 -> conv5_2
I0522 14:48:01.210994  2970 net.cpp:122] Setting up conv5_2
I0522 14:48:01.211009  2970 net.cpp:129] Top shape: 1 512 38 63 (1225728)
I0522 14:48:01.211011  2970 net.cpp:137] Memory required for data: 1375611676
I0522 14:48:01.211015  2970 layer_factory.hpp:77] Creating layer relu5_2
I0522 14:48:01.211022  2970 net.cpp:84] Creating Layer relu5_2
I0522 14:48:01.211024  2970 net.cpp:406] relu5_2 <- conv5_2
I0522 14:48:01.211028  2970 net.cpp:367] relu5_2 -> conv5_2 (in-place)
I0522 14:48:01.211300  2970 net.cpp:122] Setting up relu5_2
I0522 14:48:01.211308  2970 net.cpp:129] Top shape: 1 512 38 63 (1225728)
I0522 14:48:01.211310  2970 net.cpp:137] Memory required for data: 1380514588
I0522 14:48:01.211313  2970 layer_factory.hpp:77] Creating layer conv5_3
I0522 14:48:01.211318  2970 net.cpp:84] Creating Layer conv5_3
I0522 14:48:01.211320  2970 net.cpp:406] conv5_3 <- conv5_2
I0522 14:48:01.211324  2970 net.cpp:380] conv5_3 -> conv5_3
I0522 14:48:01.214465  2970 net.cpp:122] Setting up conv5_3
I0522 14:48:01.214481  2970 net.cpp:129] Top shape: 1 512 38 63 (1225728)
I0522 14:48:01.214484  2970 net.cpp:137] Memory required for data: 1385417500
I0522 14:48:01.214489  2970 layer_factory.hpp:77] Creating layer relu5_3
I0522 14:48:01.214494  2970 net.cpp:84] Creating Layer relu5_3
I0522 14:48:01.214496  2970 net.cpp:406] relu5_3 <- conv5_3
I0522 14:48:01.214501  2970 net.cpp:367] relu5_3 -> conv5_3 (in-place)
I0522 14:48:01.214624  2970 net.cpp:122] Setting up relu5_3
I0522 14:48:01.214630  2970 net.cpp:129] Top shape: 1 512 38 63 (1225728)
I0522 14:48:01.214632  2970 net.cpp:137] Memory required for data: 1390320412
I0522 14:48:01.214634  2970 layer_factory.hpp:77] Creating layer rpn_conv/3x3
I0522 14:48:01.214644  2970 net.cpp:84] Creating Layer rpn_conv/3x3
I0522 14:48:01.214646  2970 net.cpp:406] rpn_conv/3x3 <- conv5_3
I0522 14:48:01.214650  2970 net.cpp:380] rpn_conv/3x3 -> rpn/output
I0522 14:48:01.230567  2970 net.cpp:122] Setting up rpn_conv/3x3
I0522 14:48:01.230584  2970 net.cpp:129] Top shape: 1 512 38 63 (1225728)
I0522 14:48:01.230587  2970 net.cpp:137] Memory required for data: 1395223324
I0522 14:48:01.230592  2970 layer_factory.hpp:77] Creating layer rpn_relu/3x3
I0522 14:48:01.230597  2970 net.cpp:84] Creating Layer rpn_relu/3x3
I0522 14:48:01.230602  2970 net.cpp:406] rpn_relu/3x3 <- rpn/output
I0522 14:48:01.230605  2970 net.cpp:367] rpn_relu/3x3 -> rpn/output (in-place)
I0522 14:48:01.230728  2970 net.cpp:122] Setting up rpn_relu/3x3
I0522 14:48:01.230734  2970 net.cpp:129] Top shape: 1 512 38 63 (1225728)
I0522 14:48:01.230736  2970 net.cpp:137] Memory required for data: 1400126236
I0522 14:48:01.230738  2970 layer_factory.hpp:77] Creating layer rpn/output_rpn_relu/3x3_0_split
I0522 14:48:01.230741  2970 net.cpp:84] Creating Layer rpn/output_rpn_relu/3x3_0_split
I0522 14:48:01.230743  2970 net.cpp:406] rpn/output_rpn_relu/3x3_0_split <- rpn/output
I0522 14:48:01.230748  2970 net.cpp:380] rpn/output_rpn_relu/3x3_0_split -> rpn/output_rpn_relu/3x3_0_split_0
I0522 14:48:01.230752  2970 net.cpp:380] rpn/output_rpn_relu/3x3_0_split -> rpn/output_rpn_relu/3x3_0_split_1
I0522 14:48:01.230779  2970 net.cpp:122] Setting up rpn/output_rpn_relu/3x3_0_split
I0522 14:48:01.230783  2970 net.cpp:129] Top shape: 1 512 38 63 (1225728)
I0522 14:48:01.230787  2970 net.cpp:129] Top shape: 1 512 38 63 (1225728)
I0522 14:48:01.230788  2970 net.cpp:137] Memory required for data: 1409932060
I0522 14:48:01.230808  2970 layer_factory.hpp:77] Creating layer rpn_cls_score
I0522 14:48:01.230815  2970 net.cpp:84] Creating Layer rpn_cls_score
I0522 14:48:01.230818  2970 net.cpp:406] rpn_cls_score <- rpn/output_rpn_relu/3x3_0_split_0
I0522 14:48:01.230823  2970 net.cpp:380] rpn_cls_score -> rpn_cls_score
I0522 14:48:01.231663  2970 net.cpp:122] Setting up rpn_cls_score
I0522 14:48:01.231673  2970 net.cpp:129] Top shape: 1 18 38 63 (43092)
I0522 14:48:01.231674  2970 net.cpp:137] Memory required for data: 1410104428
I0522 14:48:01.231678  2970 layer_factory.hpp:77] Creating layer rpn_cls_score_rpn_cls_score_0_split
I0522 14:48:01.231681  2970 net.cpp:84] Creating Layer rpn_cls_score_rpn_cls_score_0_split
I0522 14:48:01.231683  2970 net.cpp:406] rpn_cls_score_rpn_cls_score_0_split <- rpn_cls_score
I0522 14:48:01.231688  2970 net.cpp:380] rpn_cls_score_rpn_cls_score_0_split -> rpn_cls_score_rpn_cls_score_0_split_0
I0522 14:48:01.231693  2970 net.cpp:380] rpn_cls_score_rpn_cls_score_0_split -> rpn_cls_score_rpn_cls_score_0_split_1
I0522 14:48:01.231717  2970 net.cpp:122] Setting up rpn_cls_score_rpn_cls_score_0_split
I0522 14:48:01.231724  2970 net.cpp:129] Top shape: 1 18 38 63 (43092)
I0522 14:48:01.231725  2970 net.cpp:129] Top shape: 1 18 38 63 (43092)
I0522 14:48:01.231727  2970 net.cpp:137] Memory required for data: 1410449164
I0522 14:48:01.231729  2970 layer_factory.hpp:77] Creating layer rpn_bbox_pred
I0522 14:48:01.231734  2970 net.cpp:84] Creating Layer rpn_bbox_pred
I0522 14:48:01.231737  2970 net.cpp:406] rpn_bbox_pred <- rpn/output_rpn_relu/3x3_0_split_1
I0522 14:48:01.231740  2970 net.cpp:380] rpn_bbox_pred -> rpn_bbox_pred
I0522 14:48:01.232496  2970 net.cpp:122] Setting up rpn_bbox_pred
I0522 14:48:01.232502  2970 net.cpp:129] Top shape: 1 36 38 63 (86184)
I0522 14:48:01.232504  2970 net.cpp:137] Memory required for data: 1410793900
I0522 14:48:01.232508  2970 layer_factory.hpp:77] Creating layer rpn_cls_score_reshape
I0522 14:48:01.232517  2970 net.cpp:84] Creating Layer rpn_cls_score_reshape
I0522 14:48:01.232518  2970 net.cpp:406] rpn_cls_score_reshape <- rpn_cls_score_rpn_cls_score_0_split_0
I0522 14:48:01.232522  2970 net.cpp:380] rpn_cls_score_reshape -> rpn_cls_score_reshape
I0522 14:48:01.232542  2970 net.cpp:122] Setting up rpn_cls_score_reshape
I0522 14:48:01.232547  2970 net.cpp:129] Top shape: 1 2 342 63 (43092)
I0522 14:48:01.232547  2970 net.cpp:137] Memory required for data: 1410966268
I0522 14:48:01.232550  2970 layer_factory.hpp:77] Creating layer rpn-data
I0522 14:48:01.232839  2970 net.cpp:84] Creating Layer rpn-data
I0522 14:48:01.232846  2970 net.cpp:406] rpn-data <- rpn_cls_score_rpn_cls_score_0_split_1
I0522 14:48:01.232848  2970 net.cpp:406] rpn-data <- gt_boxes
I0522 14:48:01.232851  2970 net.cpp:406] rpn-data <- im_info
I0522 14:48:01.232853  2970 net.cpp:406] rpn-data <- data_input-data_0_split_1
I0522 14:48:01.232857  2970 net.cpp:380] rpn-data -> rpn_labels
I0522 14:48:01.232861  2970 net.cpp:380] rpn-data -> rpn_bbox_targets
I0522 14:48:01.232867  2970 net.cpp:380] rpn-data -> rpn_bbox_inside_weights
I0522 14:48:01.232872  2970 net.cpp:380] rpn-data -> rpn_bbox_outside_weights
I0522 14:48:01.233330  2970 net.cpp:122] Setting up rpn-data
I0522 14:48:01.233338  2970 net.cpp:129] Top shape: 1 1 342 63 (21546)
I0522 14:48:01.233341  2970 net.cpp:129] Top shape: 1 36 38 63 (86184)
I0522 14:48:01.233345  2970 net.cpp:129] Top shape: 1 36 38 63 (86184)
I0522 14:48:01.233346  2970 net.cpp:129] Top shape: 1 36 38 63 (86184)
I0522 14:48:01.233348  2970 net.cpp:137] Memory required for data: 1412086660
I0522 14:48:01.233350  2970 layer_factory.hpp:77] Creating layer rpn_loss_cls
I0522 14:48:01.233357  2970 net.cpp:84] Creating Layer rpn_loss_cls
I0522 14:48:01.233359  2970 net.cpp:406] rpn_loss_cls <- rpn_cls_score_reshape
I0522 14:48:01.233362  2970 net.cpp:406] rpn_loss_cls <- rpn_labels
I0522 14:48:01.233366  2970 net.cpp:380] rpn_loss_cls -> rpn_cls_loss
…
I0522 14:48:01.234185  2970 net.cpp:122] Setting up rpn_loss_bbox
I0522 14:48:01.234191  2970 net.cpp:129] Top shape: (1)
I0522 14:48:01.234194  2970 net.cpp:132]     with loss weight 1
I0522 14:48:01.234196  2970 net.cpp:137] Memory required for data: 1412086668
I0522 14:48:01.234197  2970 layer_factory.hpp:77] Creating layer dummy_roi_pool_conv5
I0522 14:48:01.234203  2970 net.cpp:84] Creating Layer dummy_roi_pool_conv5
I0522 14:48:01.234207  2970 net.cpp:380] dummy_roi_pool_conv5 -> dummy_roi_pool_conv5
I0522 14:48:01.234246  2970 net.cpp:122] Setting up dummy_roi_pool_conv5
I0522 14:48:01.234249  2970 net.cpp:129] Top shape: 1 25088 (25088)
I0522 14:48:01.234251  2970 net.cpp:137] Memory required for data: 1412187020
I0522 14:48:01.234252  2970 layer_factory.hpp:77] Creating layer fc6
I0522 14:48:01.234257  2970 net.cpp:84] Creating Layer fc6
I0522 14:48:01.234259  2970 net.cpp:406] fc6 <- dummy_roi_pool_conv5
I0522 14:48:01.234263  2970 net.cpp:380] fc6 -> fc6
I0522 14:48:01.340503  2970 net.cpp:122] Setting up fc6
I0522 14:48:01.340523  2970 net.cpp:129] Top shape: 1 4096 (4096)
I0522 14:48:01.340524  2970 net.cpp:137] Memory required for data: 1412203404
I0522 14:48:01.340535  2970 layer_factory.hpp:77] Creating layer relu6
I0522 14:48:01.340543  2970 net.cpp:84] Creating Layer relu6
I0522 14:48:01.340545  2970 net.cpp:406] relu6 <- fc6
I0522 14:48:01.340550  2970 net.cpp:367] relu6 -> fc6 (in-place)
I0522 14:48:01.340723  2970 net.cpp:122] Setting up relu6
I0522 14:48:01.340729  2970 net.cpp:129] Top shape: 1 4096 (4096)
I0522 14:48:01.340731  2970 net.cpp:137] Memory required for data: 1412219788
I0522 14:48:01.340734  2970 layer_factory.hpp:77] Creating layer drop6
I0522 14:48:01.340737  2970 net.cpp:84] Creating Layer drop6
I0522 14:48:01.340739  2970 net.cpp:406] drop6 <- fc6
I0522 14:48:01.340744  2970 net.cpp:367] drop6 -> fc6 (in-place)
I0522 14:48:01.340764  2970 net.cpp:122] Setting up drop6
I0522 14:48:01.340766  2970 net.cpp:129] Top shape: 1 4096 (4096)
I0522 14:48:01.340768  2970 net.cpp:137] Memory required for data: 1412236172
I0522 14:48:01.340770  2970 layer_factory.hpp:77] Creating layer fc7
I0522 14:48:01.340775  2970 net.cpp:84] Creating Layer fc7
I0522 14:48:01.340776  2970 net.cpp:406] fc7 <- fc6
I0522 14:48:01.340780  2970 net.cpp:380] fc7 -> fc7
I0522 14:48:01.358124  2970 net.cpp:122] Setting up fc7
I0522 14:48:01.358145  2970 net.cpp:129] Top shape: 1 4096 (4096)
I0522 14:48:01.358148  2970 net.cpp:137] Memory required for data: 1412252556
I0522 14:48:01.358155  2970 layer_factory.hpp:77] Creating layer silence_fc7
I0522 14:48:01.358161  2970 net.cpp:84] Creating Layer silence_fc7
I0522 14:48:01.358163  2970 net.cpp:406] silence_fc7 <- fc7
I0522 14:48:01.358168  2970 net.cpp:122] Setting up silence_fc7
I0522 14:48:01.358170  2970 net.cpp:137] Memory required for data: 1412252556
…
I0522 15:08:15.666582  3596 upgrade_proto.cpp:72] Successfully upgraded file specified using deprecated input fields.
W0522 15:08:15.666584  3596 upgrade_proto.cpp:74] Note that future Caffe releases will only support input layers and not input fields.
I0522 15:08:15.666724  3596 net.cpp:51] Initializing net from parameters: 
name: "VGG_ILSVRC_16_layers"
state {
  phase: TEST
  level: 0
}
layer {
  name: "input"
  type: "Input"
  top: "data"
  top: "im_info"
  input_param {
    shape {
      dim: 1
      dim: 3
      dim: 224
      dim: 224
    }
    shape {
      dim: 1
      dim: 3
    }
  }
}
layer {
  name: "conv1_1"
  type: "Convolution"
  bottom: "data"
  top: "conv1_1"
  convolution_param {
    num_output: 64
    pad: 1
    kernel_size: 3
  }
}
layer {
  name: "relu1_1"
  type: "ReLU"
  bottom: "conv1_1"
  top: "conv1_1"
}
layer {
  name: "conv1_2"
  type: "Convolution"
  bottom: "conv1_1"
  top: "conv1_2"
  convolution_param {
    num_output: 64
    pad: 1
    kernel_size: 3
  }
}
layer {
  name: "relu1_2"
  type: "ReLU"
  bottom: "conv1_2"
  top: "conv1_2"
}
layer {
  name: "pool1"
  type: "Pooling"
  bottom: "conv1_2"
  top: "pool1"
  pooling_param {
    pool: MAX
    kernel_size: 2
    stride: 2
  }
}
layer {
  name: "conv2_1"
  type: "Convolution"
  bottom: "pool1"
  top: "conv2_1"
  convolution_param {
    num_output: 128
    pad: 1
    kernel_size: 3
  }
}
layer {
  name: "relu2_1"
  type: "ReLU"
  bottom: "conv2_1"
  top: "conv2_1"
}
layer {
  name: "conv2_2"
  type: "Convolution"
  bottom: "conv2_1"
  top: "conv2_2"
  convolution_param {
    num_output: 128
    pad: 1
    kernel_size: 3
  }
}
layer {
  name: "relu2_2"
  type: "ReLU"
  bottom: "conv2_2"
  top: "conv2_2"
}
layer {
  name: "pool2"
  type: "Pooling"
  bottom: "conv2_2"
  top: "pool2"
  pooling_param {
    pool: MAX
    kernel_size: 2
    stride: 2
  }
}
layer {
  name: "conv3_1"
  type: "Convolution"
  bottom: "pool2"
  top: "conv3_1"
  convolution_param {
    num_output: 256
    pad: 1
    kernel_size: 3
  }
}
layer {
  name: "relu3_1"
  type: "ReLU"
  bottom: "conv3_1"
  top: "conv3_1"
}
layer {
  name: "conv3_2"
  type: "Convolution"
  bottom: "conv3_1"
  top: "conv3_2"
  convolution_param {
    num_output: 256
    pad: 1
    kernel_size: 3
  }
}
layer {
  name: "relu3_2"
  type: "ReLU"
  bottom: "conv3_2"
  top: "conv3_2"
}
layer {
  name: "conv3_3"
  type: "Convolution"
  bottom: "conv3_2"
  top: "conv3_3"
  convolution_param {
    num_output: 256
    pad: 1
    kernel_size: 3
  }
}
layer {
  name: "relu3_3"
  type: "ReLU"
  bottom: "conv3_3"
  top: "conv3_3"
}
layer {
  name: "pool3"
  type: "Pooling"
  bottom: "conv3_3"
  top: "pool3"
  pooling_param {
    pool: MAX
    kernel_size: 2
    stride: 2
  }
}
layer {
  name: "conv4_1"
  type: "Convolution"
  bottom: "pool3"
  top: "conv4_1"
  convolution_param {
    num_output: 512
    pad: 1
    kernel_size: 3
  }
}
layer {
  name: "relu4_1"
  type: "ReLU"
  bottom: "conv4_1"
  top: "conv4_1"
}
layer {
  name: "conv4_2"
  type: "Convolution"
  bottom: "conv4_1"
  top: "conv4_2"
  convolution_param {
    num_output: 512
    pad: 1
    kernel_size: 3
  }
}
layer {
  name: "relu4_2"
  type: "ReLU"
  bottom: "conv4_2"
  top: "conv4_2"
}
layer {
  name: "conv4_3"
  type: "Convolution"
  bottom: "conv4_2"
  top: "conv4_3"
  convolution_param {
    num_output: 512
    pad: 1
    kernel_size: 3
  }
}
layer {
  name: "relu4_3"
  type: "ReLU"
  bottom: "conv4_3"
  top: "conv4_3"
}
layer {
  name: "pool4"
  type: "Pooling"
  bottom: "conv4_3"
  top: "pool4"
  pooling_param {
    pool: MAX
    kernel_size: 2
    stride: 2
  }
}
layer {
  name: "conv5_1"
  type: "Convolution"
  bottom: "pool4"
  top: "conv5_1"
  convolution_param {
    num_output: 512
    pad: 1
    kernel_size: 3
  }
}
layer {
  name: "relu5_1"
  type: "ReLU"
  bottom: "conv5_1"
  top: "conv5_1"
}
layer {
  name: "conv5_2"
  type: "Convolution"
  bottom: "conv5_1"
  top: "conv5_2"
  convolution_param {
    num_output: 512
    pad: 1
    kernel_size: 3
  }
}
layer {
  name: "relu5_2"
  type: "ReLU"
  bottom: "conv5_2"
  top: "conv5_2"
}
layer {
  name: "conv5_3"
  type: "Convolution"
  bottom: "conv5_2"
  top: "conv5_3"
  convolution_param {
    num_output: 512
    pad: 1
    kernel_size: 3
  }
}
layer {
  name: "relu5_3"
  type: "ReLU"
  bottom: "conv5_3"
  top: "conv5_3"
}
layer {
  name: "rpn_conv/3x3"
  type: "Convolution"
  bottom: "conv5_3"
  top: "rpn/output"
  convolution_param {
    num_output: 512
    pad: 1
    kernel_size: 3
    stride: 1
  }
}
layer {
  name: "rpn_relu/3x3"
  type: "ReLU"
  bottom: "rpn/output"
  top: "rpn/output"
}
layer {
  name: "rpn_cls_score"
  type: "Convolution"
  bottom: "rpn/output"
  top: "rpn_cls_score"
  convolution_param {
    num_output: 18
    pad: 0
    kernel_size: 1
    stride: 1
  }
}
layer {
  name: "rpn_bbox_pred"
  type: "Convolution"
  bottom: "rpn/output"
  top: "rpn_bbox_pred"
  convolution_param {
    num_output: 36
    pad: 0
    kernel_size: 1
    stride: 1
  }
}
layer {
  name: "rpn_cls_score_reshape"
  type: "Reshape"
  bottom: "rpn_cls_score"
  top: "rpn_cls_score_reshape"
  reshape_param {
    shape {
      dim: 0
      dim: 2
      dim: -1
      dim: 0
    }
  }
}
layer {
  name: "rpn_cls_prob"
  type: "Softmax"
  bottom: "rpn_cls_score_reshape"
  top: "rpn_cls_prob"
}
layer {
  name: "rpn_cls_prob_reshape"
  type: "Reshape"
  bottom: "rpn_cls_prob"
  top: "rpn_cls_prob_reshape"
  reshape_param {
    shape {
      dim: 0
      dim: 18
      dim: -1
      dim: 0
    }
  }
}
layer {
  name: "proposal"
  type: "Python"
  bottom: "rpn_cls_prob_reshape"
  bottom: "rpn_bbox_pred"
  bottom: "im_info"
  top: "rois"
  top: "scores"
  python_param {
    module: "rpn.proposal_layer"
    layer: "ProposalLayer"
    param_str: "\'feat_stride\': 16"
  }
}
I0522 15:08:15.666832  3596 layer_factory.hpp:77] Creating layer input
I0522 15:08:15.666842  3596 net.cpp:84] Creating Layer input
I0522 15:08:15.666858  3596 net.cpp:380] input -> data
I0522 15:08:15.666865  3596 net.cpp:380] input -> im_info
I0522 15:08:30.876319  3596 net.cpp:122] Setting up input
I0522 15:08:30.876338  3596 net.cpp:129] Top shape: 1 3 224 224 (150528)
I0522 15:08:30.876341  3596 net.cpp:129] Top shape: 1 3 (3)
I0522 15:08:30.876343  3596 net.cpp:137] Memory required for data: 602124
I0522 15:08:30.876348  3596 layer_factory.hpp:77] Creating layer conv1_1
I0522 15:08:30.876363  3596 net.cpp:84] Creating Layer conv1_1
I0522 15:08:30.876365  3596 net.cpp:406] conv1_1 <- data
I0522 15:08:30.876369  3596 net.cpp:380] conv1_1 -> conv1_1
I0522 15:08:31.022601  3596 net.cpp:122] Setting up conv1_1
I0522 15:08:31.022621  3596 net.cpp:129] Top shape: 1 64 224 224 (3211264)
I0522 15:08:31.022624  3596 net.cpp:137] Memory required for data: 13447180
I0522 15:08:31.022653  3596 layer_factory.hpp:77] Creating layer relu1_1
I0522 15:08:31.022670  3596 net.cpp:84] Creating Layer relu1_1
I0522 15:08:31.022675  3596 net.cpp:406] relu1_1 <- conv1_1
I0522 15:08:31.022680  3596 net.cpp:367] relu1_1 -> conv1_1 (in-place)
I0522 15:08:31.022843  3596 net.cpp:122] Setting up relu1_1
I0522 15:08:31.022850  3596 net.cpp:129] Top shape: 1 64 224 224 (3211264)
I0522 15:08:31.022851  3596 net.cpp:137] Memory required for data: 26292236
I0522 15:08:31.022868  3596 layer_factory.hpp:77] Creating layer conv1_2
I0522 15:08:31.022876  3596 net.cpp:84] Creating Layer conv1_2
I0522 15:08:31.022879  3596 net.cpp:406] conv1_2 <- conv1_1
I0522 15:08:31.022884  3596 net.cpp:380] conv1_2 -> conv1_2
I0522 15:08:31.023530  3596 net.cpp:122] Setting up conv1_2
I0522 15:08:31.023536  3596 net.cpp:129] Top shape: 1 64 224 224 (3211264)
I0522 15:08:31.023540  3596 net.cpp:137] Memory required for data: 39137292
I0522 15:08:31.023543  3596 layer_factory.hpp:77] Creating layer relu1_2
I0522 15:08:31.023548  3596 net.cpp:84] Creating Layer relu1_2
I0522 15:08:31.023550  3596 net.cpp:406] relu1_2 <- conv1_2
I0522 15:08:31.023553  3596 net.cpp:367] relu1_2 -> conv1_2 (in-place)
I0522 15:08:31.023697  3596 net.cpp:122] Setting up relu1_2
I0522 15:08:31.023703  3596 net.cpp:129] Top shape: 1 64 224 224 (3211264)
I0522 15:08:31.023705  3596 net.cpp:137] Memory required for data: 51982348
I0522 15:08:31.023707  3596 layer_factory.hpp:77] Creating layer pool1
I0522 15:08:31.023711  3596 net.cpp:84] Creating Layer pool1
I0522 15:08:31.023713  3596 net.cpp:406] pool1 <- conv1_2
I0522 15:08:31.023716  3596 net.cpp:380] pool1 -> pool1
I0522 15:08:31.023761  3596 net.cpp:122] Setting up pool1
I0522 15:08:31.023767  3596 net.cpp:129] Top shape: 1 64 112 112 (802816)
I0522 15:08:31.023771  3596 net.cpp:137] Memory required for data: 55193612
I0522 15:08:31.023773  3596 layer_factory.hpp:77] Creating layer conv2_1
I0522 15:08:31.023794  3596 net.cpp:84] Creating Layer conv2_1
I0522 15:08:31.023797  3596 net.cpp:406] conv2_1 <- pool1
I0522 15:08:31.023802  3596 net.cpp:380] conv2_1 -> conv2_1
I0522 15:08:31.025403  3596 net.cpp:122] Setting up conv2_1
I0522 15:08:31.025413  3596 net.cpp:129] Top shape: 1 128 112 112 (1605632)
I0522 15:08:31.025414  3596 net.cpp:137] Memory required for data: 61616140
I0522 15:08:31.025436  3596 layer_factory.hpp:77] Creating layer relu2_1
I0522 15:08:31.025441  3596 net.cpp:84] Creating Layer relu2_1
I0522 15:08:31.025444  3596 net.cpp:406] relu2_1 <- conv2_1
I0522 15:08:31.025446  3596 net.cpp:367] relu2_1 -> conv2_1 (in-place)
I0522 15:08:31.025609  3596 net.cpp:122] Setting up relu2_1
I0522 15:08:31.025616  3596 net.cpp:129] Top shape: 1 128 112 112 (1605632)
I0522 15:08:31.025633  3596 net.cpp:137] Memory required for data: 68038668
I0522 15:08:31.025635  3596 layer_factory.hpp:77] Creating layer conv2_2
I0522 15:08:31.025640  3596 net.cpp:84] Creating Layer conv2_2
I0522 15:08:31.025642  3596 net.cpp:406] conv2_2 <- conv2_1
I0522 15:08:31.025645  3596 net.cpp:380] conv2_2 -> conv2_2
I0522 15:08:31.026417  3596 net.cpp:122] Setting up conv2_2
I0522 15:08:31.026424  3596 net.cpp:129] Top shape: 1 128 112 112 (1605632)
I0522 15:08:31.026427  3596 net.cpp:137] Memory required for data: 74461196
I0522 15:08:31.026432  3596 layer_factory.hpp:77] Creating layer relu2_2
I0522 15:08:31.026435  3596 net.cpp:84] Creating Layer relu2_2
I0522 15:08:31.026437  3596 net.cpp:406] relu2_2 <- conv2_2
I0522 15:08:31.026440  3596 net.cpp:367] relu2_2 -> conv2_2 (in-place)
I0522 15:08:31.026553  3596 net.cpp:122] Setting up relu2_2
I0522 15:08:31.026559  3596 net.cpp:129] Top shape: 1 128 112 112 (1605632)
I0522 15:08:31.026561  3596 net.cpp:137] Memory required for data: 80883724
I0522 15:08:31.026564  3596 layer_factory.hpp:77] Creating layer pool2
I0522 15:08:31.026567  3596 net.cpp:84] Creating Layer pool2
I0522 15:08:31.026569  3596 net.cpp:406] pool2 <- conv2_2
I0522 15:08:31.026572  3596 net.cpp:380] pool2 -> pool2
I0522 15:08:31.026597  3596 net.cpp:122] Setting up pool2
I0522 15:08:31.026600  3596 net.cpp:129] Top shape: 1 128 56 56 (401408)
I0522 15:08:31.026602  3596 net.cpp:137] Memory required for data: 82489356
I0522 15:08:31.026604  3596 layer_factory.hpp:77] Creating layer conv3_1
I0522 15:08:31.026608  3596 net.cpp:84] Creating Layer conv3_1
I0522 15:08:31.026610  3596 net.cpp:406] conv3_1 <- pool2
I0522 15:08:31.026613  3596 net.cpp:380] conv3_1 -> conv3_1
I0522 15:08:31.027400  3596 net.cpp:122] Setting up conv3_1
I0522 15:08:31.027407  3596 net.cpp:129] Top shape: 1 256 56 56 (802816)
I0522 15:08:31.027410  3596 net.cpp:137] Memory required for data: 85700620
I0522 15:08:31.027415  3596 layer_factory.hpp:77] Creating layer relu3_1
I0522 15:08:31.027418  3596 net.cpp:84] Creating Layer relu3_1
I0522 15:08:31.027421  3596 net.cpp:406] relu3_1 <- conv3_1
I0522 15:08:31.027424  3596 net.cpp:367] relu3_1 -> conv3_1 (in-place)
I0522 15:08:31.027650  3596 net.cpp:122] Setting up relu3_1
I0522 15:08:31.027657  3596 net.cpp:129] Top shape: 1 256 56 56 (802816)
I0522 15:08:31.027659  3596 net.cpp:137] Memory required for data: 88911884
I0522 15:08:31.027662  3596 layer_factory.hpp:77] Creating layer conv3_2
I0522 15:08:31.027665  3596 net.cpp:84] Creating Layer conv3_2
I0522 15:08:31.027667  3596 net.cpp:406] conv3_2 <- conv3_1
I0522 15:08:31.027671  3596 net.cpp:380] conv3_2 -> conv3_2
I0522 15:08:31.028935  3596 net.cpp:122] Setting up conv3_2
I0522 15:08:31.028944  3596 net.cpp:129] Top shape: 1 256 56 56 (802816)
I0522 15:08:31.028946  3596 net.cpp:137] Memory required for data: 92123148
I0522 15:08:31.028950  3596 layer_factory.hpp:77] Creating layer relu3_2
I0522 15:08:31.028954  3596 net.cpp:84] Creating Layer relu3_2
I0522 15:08:31.028956  3596 net.cpp:406] relu3_2 <- conv3_2
I0522 15:08:31.028959  3596 net.cpp:367] relu3_2 -> conv3_2 (in-place)
I0522 15:08:31.029187  3596 net.cpp:122] Setting up relu3_2
I0522 15:08:31.029194  3596 net.cpp:129] Top shape: 1 256 56 56 (802816)
I0522 15:08:31.029196  3596 net.cpp:137] Memory required for data: 95334412
I0522 15:08:31.029198  3596 layer_factory.hpp:77] Creating layer conv3_3
I0522 15:08:31.029203  3596 net.cpp:84] Creating Layer conv3_3
I0522 15:08:31.029206  3596 net.cpp:406] conv3_3 <- conv3_2
I0522 15:08:31.029208  3596 net.cpp:380] conv3_3 -> conv3_3
I0522 15:08:31.030606  3596 net.cpp:122] Setting up conv3_3
I0522 15:08:31.030614  3596 net.cpp:129] Top shape: 1 256 56 56 (802816)
I0522 15:08:31.030616  3596 net.cpp:137] Memory required for data: 98545676
I0522 15:08:31.030620  3596 layer_factory.hpp:77] Creating layer relu3_3
I0522 15:08:31.030627  3596 net.cpp:84] Creating Layer relu3_3
I0522 15:08:31.030629  3596 net.cpp:406] relu3_3 <- conv3_3
I0522 15:08:31.030632  3596 net.cpp:367] relu3_3 -> conv3_3 (in-place)
I0522 15:08:31.030760  3596 net.cpp:122] Setting up relu3_3
I0522 15:08:31.030766  3596 net.cpp:129] Top shape: 1 256 56 56 (802816)
I0522 15:08:31.030768  3596 net.cpp:137] Memory required for data: 101756940
I0522 15:08:31.030769  3596 layer_factory.hpp:77] Creating layer pool3
I0522 15:08:31.030773  3596 net.cpp:84] Creating Layer pool3
I0522 15:08:31.030776  3596 net.cpp:406] pool3 <- conv3_3
I0522 15:08:31.030781  3596 net.cpp:380] pool3 -> pool3
I0522 15:08:31.030818  3596 net.cpp:122] Setting up pool3
I0522 15:08:31.030824  3596 net.cpp:129] Top shape: 1 256 28 28 (200704)
I0522 15:08:31.030827  3596 net.cpp:137] Memory required for data: 102559756
I0522 15:08:31.030828  3596 layer_factory.hpp:77] Creating layer conv4_1
I0522 15:08:31.030833  3596 net.cpp:84] Creating Layer conv4_1
I0522 15:08:31.030835  3596 net.cpp:406] conv4_1 <- pool3
I0522 15:08:31.030839  3596 net.cpp:380] conv4_1 -> conv4_1
I0522 15:08:31.033584  3596 net.cpp:122] Setting up conv4_1
I0522 15:08:31.033602  3596 net.cpp:129] Top shape: 1 512 28 28 (401408)
I0522 15:08:31.033607  3596 net.cpp:137] Memory required for data: 104165388
I0522 15:08:31.033614  3596 layer_factory.hpp:77] Creating layer relu4_1
I0522 15:08:31.033624  3596 net.cpp:84] Creating Layer relu4_1
I0522 15:08:31.033628  3596 net.cpp:406] relu4_1 <- conv4_1
I0522 15:08:31.033635  3596 net.cpp:367] relu4_1 -> conv4_1 (in-place)
I0522 15:08:31.033802  3596 net.cpp:122] Setting up relu4_1
I0522 15:08:31.033809  3596 net.cpp:129] Top shape: 1 512 28 28 (401408)
I0522 15:08:31.033813  3596 net.cpp:137] Memory required for data: 105771020
I0522 15:08:31.033818  3596 layer_factory.hpp:77] Creating layer conv4_2
I0522 15:08:31.033825  3596 net.cpp:84] Creating Layer conv4_2
I0522 15:08:31.033829  3596 net.cpp:406] conv4_2 <- conv4_1
I0522 15:08:31.033835  3596 net.cpp:380] conv4_2 -> conv4_2
I0522 15:08:31.037446  3596 net.cpp:122] Setting up conv4_2
I0522 15:08:31.037464  3596 net.cpp:129] Top shape: 1 512 28 28 (401408)
I0522 15:08:31.037467  3596 net.cpp:137] Memory required for data: 107376652
I0522 15:08:31.037477  3596 layer_factory.hpp:77] Creating layer relu4_2
I0522 15:08:31.037489  3596 net.cpp:84] Creating Layer relu4_2
I0522 15:08:31.037518  3596 net.cpp:406] relu4_2 <- conv4_2
I0522 15:08:31.037523  3596 net.cpp:367] relu4_2 -> conv4_2 (in-place)
I0522 15:08:31.037668  3596 net.cpp:122] Setting up relu4_2
I0522 15:08:31.037674  3596 net.cpp:129] Top shape: 1 512 28 28 (401408)
I0522 15:08:31.037678  3596 net.cpp:137] Memory required for data: 108982284
I0522 15:08:31.037679  3596 layer_factory.hpp:77] Creating layer conv4_3
I0522 15:08:31.037685  3596 net.cpp:84] Creating Layer conv4_3
I0522 15:08:31.037688  3596 net.cpp:406] conv4_3 <- conv4_2
I0522 15:08:31.037691  3596 net.cpp:380] conv4_3 -> conv4_3
I0522 15:08:31.040910  3596 net.cpp:122] Setting up conv4_3
I0522 15:08:31.040931  3596 net.cpp:129] Top shape: 1 512 28 28 (401408)
I0522 15:08:31.040933  3596 net.cpp:137] Memory required for data: 110587916
I0522 15:08:31.040938  3596 layer_factory.hpp:77] Creating layer relu4_3
I0522 15:08:31.040944  3596 net.cpp:84] Creating Layer relu4_3
I0522 15:08:31.040947  3596 net.cpp:406] relu4_3 <- conv4_3
I0522 15:08:31.040951  3596 net.cpp:367] relu4_3 -> conv4_3 (in-place)
I0522 15:08:31.041083  3596 net.cpp:122] Setting up relu4_3
I0522 15:08:31.041090  3596 net.cpp:129] Top shape: 1 512 28 28 (401408)
I0522 15:08:31.041091  3596 net.cpp:137] Memory required for data: 112193548
I0522 15:08:31.041093  3596 layer_factory.hpp:77] Creating layer pool4
I0522 15:08:31.041098  3596 net.cpp:84] Creating Layer pool4
I0522 15:08:31.041101  3596 net.cpp:406] pool4 <- conv4_3
I0522 15:08:31.041105  3596 net.cpp:380] pool4 -> pool4
I0522 15:08:31.041132  3596 net.cpp:122] Setting up pool4
I0522 15:08:31.041136  3596 net.cpp:129] Top shape: 1 512 14 14 (100352)
I0522 15:08:31.041139  3596 net.cpp:137] Memory required for data: 112594956
I0522 15:08:31.041141  3596 layer_factory.hpp:77] Creating layer conv5_1
I0522 15:08:31.041146  3596 net.cpp:84] Creating Layer conv5_1
I0522 15:08:31.041149  3596 net.cpp:406] conv5_1 <- pool4
I0522 15:08:31.041154  3596 net.cpp:380] conv5_1 -> conv5_1
I0522 15:08:31.044247  3596 net.cpp:122] Setting up conv5_1
I0522 15:08:31.044266  3596 net.cpp:129] Top shape: 1 512 14 14 (100352)
I0522 15:08:31.044270  3596 net.cpp:137] Memory required for data: 112996364
I0522 15:08:31.044275  3596 layer_factory.hpp:77] Creating layer relu5_1
I0522 15:08:31.044279  3596 net.cpp:84] Creating Layer relu5_1
I0522 15:08:31.044281  3596 net.cpp:406] relu5_1 <- conv5_1
I0522 15:08:31.044286  3596 net.cpp:367] relu5_1 -> conv5_1 (in-place)
I0522 15:08:31.044545  3596 net.cpp:122] Setting up relu5_1
I0522 15:08:31.044553  3596 net.cpp:129] Top shape: 1 512 14 14 (100352)
I0522 15:08:31.044554  3596 net.cpp:137] Memory required for data: 113397772
I0522 15:08:31.044556  3596 layer_factory.hpp:77] Creating layer conv5_2
I0522 15:08:31.044562  3596 net.cpp:84] Creating Layer conv5_2
I0522 15:08:31.044565  3596 net.cpp:406] conv5_2 <- conv5_1
I0522 15:08:31.044569  3596 net.cpp:380] conv5_2 -> conv5_2
I0522 15:08:31.047523  3596 net.cpp:122] Setting up conv5_2
I0522 15:08:31.047540  3596 net.cpp:129] Top shape: 1 512 14 14 (100352)
I0522 15:08:31.047543  3596 net.cpp:137] Memory required for data: 113799180
I0522 15:08:31.047549  3596 layer_factory.hpp:77] Creating layer relu5_2
I0522 15:08:31.047554  3596 net.cpp:84] Creating Layer relu5_2
I0522 15:08:31.047557  3596 net.cpp:406] relu5_2 <- conv5_2
I0522 15:08:31.047562  3596 net.cpp:367] relu5_2 -> conv5_2 (in-place)
I0522 15:08:31.047857  3596 net.cpp:122] Setting up relu5_2
I0522 15:08:31.047864  3596 net.cpp:129] Top shape: 1 512 14 14 (100352)
I0522 15:08:31.047866  3596 net.cpp:137] Memory required for data: 114200588
I0522 15:08:31.047868  3596 layer_factory.hpp:77] Creating layer conv5_3
I0522 15:08:31.047874  3596 net.cpp:84] Creating Layer conv5_3
I0522 15:08:31.047878  3596 net.cpp:406] conv5_3 <- conv5_2
I0522 15:08:31.047883  3596 net.cpp:380] conv5_3 -> conv5_3
I0522 15:08:31.052520  3596 net.cpp:122] Setting up conv5_3
I0522 15:08:31.052536  3596 net.cpp:129] Top shape: 1 512 14 14 (100352)
I0522 15:08:31.052539  3596 net.cpp:137] Memory required for data: 114601996
I0522 15:08:31.052546  3596 layer_factory.hpp:77] Creating layer relu5_3
I0522 15:08:31.052551  3596 net.cpp:84] Creating Layer relu5_3
I0522 15:08:31.052553  3596 net.cpp:406] relu5_3 <- conv5_3
I0522 15:08:31.052556  3596 net.cpp:367] relu5_3 -> conv5_3 (in-place)
I0522 15:08:31.052693  3596 net.cpp:122] Setting up relu5_3
I0522 15:08:31.052700  3596 net.cpp:129] Top shape: 1 512 14 14 (100352)
I0522 15:08:31.052702  3596 net.cpp:137] Memory required for data: 115003404
I0522 15:08:31.052703  3596 layer_factory.hpp:77] Creating layer rpn_conv/3x3
I0522 15:08:31.052709  3596 net.cpp:84] Creating Layer rpn_conv/3x3
I0522 15:08:31.052711  3596 net.cpp:406] rpn_conv/3x3 <- conv5_3
I0522 15:08:31.052716  3596 net.cpp:380] rpn_conv/3x3 -> rpn/output
I0522 15:08:31.056022  3596 net.cpp:122] Setting up rpn_conv/3x3
I0522 15:08:31.056040  3596 net.cpp:129] Top shape: 1 512 14 14 (100352)
I0522 15:08:31.056042  3596 net.cpp:137] Memory required for data: 115404812
I0522 15:08:31.056048  3596 layer_factory.hpp:77] Creating layer rpn_relu/3x3
I0522 15:08:31.056057  3596 net.cpp:84] Creating Layer rpn_relu/3x3
I0522 15:08:31.056061  3596 net.cpp:406] rpn_relu/3x3 <- rpn/output
I0522 15:08:31.056064  3596 net.cpp:367] rpn_relu/3x3 -> rpn/output (in-place)
I0522 15:08:31.056205  3596 net.cpp:122] Setting up rpn_relu/3x3
I0522 15:08:31.056213  3596 net.cpp:129] Top shape: 1 512 14 14 (100352)
I0522 15:08:31.056216  3596 net.cpp:137] Memory required for data: 115806220
I0522 15:08:31.056217  3596 layer_factory.hpp:77] Creating layer rpn/output_rpn_relu/3x3_0_split
I0522 15:08:31.056221  3596 net.cpp:84] Creating Layer rpn/output_rpn_relu/3x3_0_split
I0522 15:08:31.056223  3596 net.cpp:406] rpn/output_rpn_relu/3x3_0_split <- rpn/output
I0522 15:08:31.056227  3596 net.cpp:380] rpn/output_rpn_relu/3x3_0_split -> rpn/output_rpn_relu/3x3_0_split_0
I0522 15:08:31.056231  3596 net.cpp:380] rpn/output_rpn_relu/3x3_0_split -> rpn/output_rpn_relu/3x3_0_split_1
I0522 15:08:31.056265  3596 net.cpp:122] Setting up rpn/output_rpn_relu/3x3_0_split
I0522 15:08:31.056272  3596 net.cpp:129] Top shape: 1 512 14 14 (100352)
I0522 15:08:31.056277  3596 net.cpp:129] Top shape: 1 512 14 14 (100352)
I0522 15:08:31.056277  3596 net.cpp:137] Memory required for data: 116609036
I0522 15:08:31.056279  3596 layer_factory.hpp:77] Creating layer rpn_cls_score
I0522 15:08:31.056286  3596 net.cpp:84] Creating Layer rpn_cls_score
I0522 15:08:31.056288  3596 net.cpp:406] rpn_cls_score <- rpn/output_rpn_relu/3x3_0_split_0
I0522 15:08:31.056293  3596 net.cpp:380] rpn_cls_score -> rpn_cls_score
I0522 15:08:31.057082  3596 net.cpp:122] Setting up rpn_cls_score
I0522 15:08:31.057090  3596 net.cpp:129] Top shape: 1 18 14 14 (3528)
I0522 15:08:31.057093  3596 net.cpp:137] Memory required for data: 116623148
I0522 15:08:31.057097  3596 layer_factory.hpp:77] Creating layer rpn_bbox_pred
I0522 15:08:31.057102  3596 net.cpp:84] Creating Layer rpn_bbox_pred
I0522 15:08:31.057104  3596 net.cpp:406] rpn_bbox_pred <- rpn/output_rpn_relu/3x3_0_split_1
I0522 15:08:31.057109  3596 net.cpp:380] rpn_bbox_pred -> rpn_bbox_pred
I0522 15:08:31.057795  3596 net.cpp:122] Setting up rpn_bbox_pred
I0522 15:08:31.057802  3596 net.cpp:129] Top shape: 1 36 14 14 (7056)
I0522 15:08:31.057806  3596 net.cpp:137] Memory required for data: 116651372
I0522 15:08:31.057809  3596 layer_factory.hpp:77] Creating layer rpn_cls_score_reshape
I0522 15:08:31.057816  3596 net.cpp:84] Creating Layer rpn_cls_score_reshape
I0522 15:08:31.057818  3596 net.cpp:406] rpn_cls_score_reshape <- rpn_cls_score
I0522 15:08:31.057822  3596 net.cpp:380] rpn_cls_score_reshape -> rpn_cls_score_reshape
I0522 15:08:31.057842  3596 net.cpp:122] Setting up rpn_cls_score_reshape
I0522 15:08:31.057847  3596 net.cpp:129] Top shape: 1 2 126 14 (3528)
I0522 15:08:31.057848  3596 net.cpp:137] Memory required for data: 116665484
I0522 15:08:31.057850  3596 layer_factory.hpp:77] Creating layer rpn_cls_prob
I0522 15:08:31.057853  3596 net.cpp:84] Creating Layer rpn_cls_prob
I0522 15:08:31.057857  3596 net.cpp:406] rpn_cls_prob <- rpn_cls_score_reshape
I0522 15:08:31.057860  3596 net.cpp:380] rpn_cls_prob -> rpn_cls_prob
I0522 15:08:31.058024  3596 net.cpp:122] Setting up rpn_cls_prob
I0522 15:08:31.058030  3596 net.cpp:129] Top shape: 1 2 126 14 (3528)
I0522 15:08:31.058032  3596 net.cpp:137] Memory required for data: 116679596
I0522 15:08:31.058034  3596 layer_factory.hpp:77] Creating layer rpn_cls_prob_reshape
I0522 15:08:31.058038  3596 net.cpp:84] Creating Layer rpn_cls_prob_reshape
I0522 15:08:31.058040  3596 net.cpp:406] rpn_cls_prob_reshape <- rpn_cls_prob
I0522 15:08:31.058044  3596 net.cpp:380] rpn_cls_prob_reshape -> rpn_cls_prob_reshape
I0522 15:08:31.058060  3596 net.cpp:122] Setting up rpn_cls_prob_reshape
I0522 15:08:31.058064  3596 net.cpp:129] Top shape: 1 18 14 14 (3528)
I0522 15:08:31.058066  3596 net.cpp:137] Memory required for data: 116693708
I0522 15:08:31.058068  3596 layer_factory.hpp:77] Creating layer proposal
I0522 15:08:31.060036  3596 net.cpp:84] Creating Layer proposal
I0522 15:08:31.060043  3596 net.cpp:406] proposal <- rpn_cls_prob_reshape
I0522 15:08:31.060046  3596 net.cpp:406] proposal <- rpn_bbox_pred
I0522 15:08:31.060050  3596 net.cpp:406] proposal <- im_info
I0522 15:08:31.060052  3596 net.cpp:380] proposal -> rois
I0522 15:08:31.060056  3596 net.cpp:380] proposal -> scores
I0522 15:08:31.061142  3596 net.cpp:122] Setting up proposal
I0522 15:08:31.061151  3596 net.cpp:129] Top shape: 1 5 (5)
I0522 15:08:31.061152  3596 net.cpp:129] Top shape: 1 1 1 1 (1)
I0522 15:08:31.061154  3596 net.cpp:137] Memory required for data: 116693732
I0522 15:08:31.061157  3596 net.cpp:200] proposal does not need backward computation.
I0522 15:08:31.061159  3596 net.cpp:200] rpn_cls_prob_reshape does not need backward computation.
I0522 15:08:31.061161  3596 net.cpp:200] rpn_cls_prob does not need backward computation.
I0522 15:08:31.061163  3596 net.cpp:200] rpn_cls_score_reshape does not need backward computation.
…
I0522 15:09:02.562273  3634 solver.cpp:92] Creating training net from train_net file: models/pascal_voc/VGG16/faster_rcnn_alt_opt/stage1_fast_rcnn_train.pt
I0522 15:09:02.562619  3634 net.cpp:51] Initializing net from parameters: 
name: "VGG_ILSVRC_16_layers"
state {
  phase: TRAIN
}
layer {
  name: "data"
  type: "Python"
  top: "data"
  top: "rois"
  top: "labels"
  top: "bbox_targets"
  top: "bbox_inside_weights"
  top: "bbox_outside_weights"
  python_param {
    module: "roi_data_layer.layer"
    layer: "RoIDataLayer"
    param_str: "\'num_classes\': 3"
  }
}
layer {
  name: "conv1_1"
  type: "Convolution"
  bottom: "data"
  top: "conv1_1"
  param {
    lr_mult: 0
    decay_mult: 0
  }
  param {
    lr_mult: 0
    decay_mult: 0
  }
  convolution_param {
    num_output: 64
    pad: 1
    kernel_size: 3
  }
}
layer {
  name: "relu1_1"
  type: "ReLU"
  bottom: "conv1_1"
  top: "conv1_1"
}
layer {
  name: "conv1_2"
  type: "Convolution"
  bottom: "conv1_1"
  top: "conv1_2"
  param {
    lr_mult: 0
    decay_mult: 0
  }
  param {
    lr_mult: 0
    decay_mult: 0
  }
  convolution_param {
    num_output: 64
    pad: 1
    kernel_size: 3
  }
}
layer {
  name: "relu1_2"
  type: "ReLU"
  bottom: "conv1_2"
  top: "conv1_2"
}
layer {
  name: "pool1"
  type: "Pooling"
  bottom: "conv1_2"
  top: "pool1"
  pooling_param {
    pool: MAX
    kernel_size: 2
    stride: 2
  }
}
layer {
  name: "conv2_1"
  type: "Convolution"
  bottom: "pool1"
  top: "conv2_1"
  param {
    lr_mult: 0
    decay_mult: 0
  }
  param {
    lr_mult: 0
    decay_mult: 0
  }
  convolution_param {
    num_output: 128
    pad: 1
    kernel_size: 3
  }
}
layer {
  name: "relu2_1"
  type: "ReLU"
  bottom: "conv2_1"
  top: "conv2_1"
}
layer {
  name: "conv2_2"
  type: "Convolution"
  bottom: "conv2_1"
  top: "conv2_2"
  param {
    lr_mult: 0
    decay_mult: 0
  }
  param {
    lr_mult: 0
    decay_mult: 0
  }
  convolution_param {
    num_output: 128
    pad: 1
    kernel_size: 3
  }
}
layer {
  name: "relu2_2"
  type: "ReLU"
  bottom: "conv2_2"
  top: "conv2_2"
}
layer {
  name: "pool2"
  type: "Pooling"
  bottom: "conv2_2"
  top: "pool2"
  pooling_param {
    pool: MAX
    kernel_size: 2
    stride: 2
  }
}
layer {
  name: "conv3_1"
  type: "Convolution"
  bottom: "pool2"
  top: "conv3_1"
  param {
    lr_mult: 1
  }
  param {
    lr_mult: 2
  }
  convolution_param {
    num_output: 256
    pad: 1
    kernel_size: 3
  }
}
layer {
  name: "relu3_1"
  type: "ReLU"
  bottom: "conv3_1"
  top: "conv3_1"
}
layer {
  name: "conv3_2"
  type: "Convolution"
  bottom: "conv3_1"
  top: "conv3_2"
  param {
    lr_mult: 1
  }
  param {
    lr_mult: 2
  }
  convolution_param {
    num_output: 256
    pad: 1
    kernel_size: 3
  }
}
layer {
  name: "relu3_2"
  type: "ReLU"
  bottom: "conv3_2"
  top: "conv3_2"
}
layer {
  name: "conv3_3"
  type: "Convolution"
  bottom: "conv3_2"
  top: "conv3_3"
  param {
    lr_mult: 1
  }
  param {
    lr_mult: 2
  }
  convolution_param {
    num_output: 256
    pad: 1
    kernel_size: 3
  }
}
layer {
  name: "relu3_3"
  type: "ReLU"
  bottom: "conv3_3"
  top: "conv3_3"
}
layer {
  name: "pool3"
  type: "Pooling"
  bottom: "conv3_3"
  top: "pool3"
  pooling_param {
    pool: MAX
    kernel_size: 2
    stride: 2
  }
}
layer {
  name: "conv4_1"
  type: "Convolution"
  bottom: "pool3"
  top: "conv4_1"
  param {
    lr_mult: 1
  }
  param {
    lr_mult: 2
  }
  convolution_param {
    num_output: 512
    pad: 1
    kernel_size: 3
  }
}
layer {
  name: "relu4_1"
  type: "ReLU"
  bottom: "conv4_1"
  top: "conv4_1"
}
layer {
  name: "conv4_2"
  type: "Convolution"
  bottom: "conv4_1"
  top: "conv4_2"
  param {
    lr_mult: 1
  }
  param {
    lr_mult: 2
  }
  convolution_param {
    num_output: 512
    pad: 1
    kernel_size: 3
  }
}
layer {
  name: "relu4_2"
  type: "ReLU"
  bottom: "conv4_2"
  top: "conv4_2"
}
layer {
  name: "conv4_3"
  type: "Convolution"
  bottom: "conv4_2"
  top: "conv4_3"
  param {
    lr_mult: 1
  }
  param {
    lr_mult: 2
  }
  convolution_param {
    num_output: 512
    pad: 1
    kernel_size: 3
  }
}
layer {
  name: "relu4_3"
  type: "ReLU"
  bottom: "conv4_3"
  top: "conv4_3"
}
layer {
  name: "pool4"
  type: "Pooling"
  bottom: "conv4_3"
  top: "pool4"
  pooling_param {
    pool: MAX
    kernel_size: 2
    stride: 2
  }
}
layer {
  name: "conv5_1"
  type: "Convolution"
  bottom: "pool4"
  top: "conv5_1"
  param {
    lr_mult: 1
  }
  param {
    lr_mult: 2
  }
  convolution_param {
    num_output: 512
    pad: 1
    kernel_size: 3
  }
}
layer {
  name: "relu5_1"
  type: "ReLU"
  bottom: "conv5_1"
  top: "conv5_1"
}
layer {
  name: "conv5_2"
  type: "Convolution"
  bottom: "conv5_1"
  top: "conv5_2"
  param {
    lr_mult: 1
  }
  param {
    lr_mult: 2
  }
  convolution_param {
    num_output: 512
    pad: 1
    kernel_size: 3
  }
}
layer {
  name: "relu5_2"
  type: "ReLU"
  bottom: "conv5_2"
  top: "conv5_2"
}
layer {
  name: "conv5_3"
  type: "Convolution"
  bottom: "conv5_2"
  top: "conv5_3"
  param {
    lr_mult: 1
  }
  param {
    lr_mult: 2
  }
  convolution_param {
    num_output: 512
    pad: 1
    kernel_size: 3
  }
}
layer {
  name: "relu5_3"
  type: "ReLU"
  bottom: "conv5_3"
  top: "conv5_3"
}
layer {
  name: "roi_pool5"
  type: "ROIPooling"
  bottom: "conv5_3"
  bottom: "rois"
  top: "pool5"
  roi_pooling_param {
    pooled_h: 7
    pooled_w: 7
    spatial_scale: 0.0625
  }
}
layer {
  name: "fc6"
  type: "InnerProduct"
  bottom: "pool5"
  top: "fc6"
  param {
    lr_mult: 1
  }
  param {
    lr_mult: 2
  }
  inner_product_param {
    num_output: 4096
  }
}
layer {
  name: "relu6"
  type: "ReLU"
  bottom: "fc6"
  top: "fc6"
}
layer {
  name: "drop6"
  type: "Dropout"
  bottom: "fc6"
  top: "fc6"
  dropout_param {
    dropout_ratio: 0.5
  }
}
layer {
  name: "fc7"
  type: "InnerProduct"
  bottom: "fc6"
  top: "fc7"
  param {
    lr_mult: 1
  }
  param {
    lr_mult: 2
  }
  inner_product_param {
    num_output: 4096
  }
}
layer {
  name: "relu7"
  type: "ReLU"
  bottom: "fc7"
  top: "fc7"
}
layer {
  name: "drop7"
  type: "Dropout"
  bottom: "fc7"
  top: "fc7"
  dropout_param {
    dropout_ratio: 0.5
  }
}
layer {
  name: "cls_score"
  type: "InnerProduct"
  bottom: "fc7"
  top: "cls_score"
  param {
    lr_mult: 1
  }
  param {
    lr_mult: 2
  }
  inner_product_param {
    num_output: 3
    weight_filler {
      type: "gaussian"
      std: 0.01
    }
    bias_filler {
      type: "constant"
      value: 0
    }
  }
}
layer {
  name: "bbox_pred"
  type: "InnerProduct"
  bottom: "fc7"
  top: "bbox_pred"
  param {
    lr_mult: 1
  }
  param {
    lr_mult: 2
  }
  inner_product_param {
    num_output: 12
    weight_filler {
      type: "gaussian"
      std: 0.001
    }
    bias_filler {
      type: "constant"
      value: 0
    }
  }
}
layer {
  name: "loss_cls"
  type: "SoftmaxWithLoss"
  bottom: "cls_score"
  bottom: "labels"
  top: "loss_cls"
  loss_weight: 1
}
layer {
  name: "loss_bbox"
  type: "SmoothL1Loss"
  bottom: "bbox_pred"
  bottom: "bbox_targets"
  bottom: "bbox_inside_weights"
  bottom: "bbox_outside_weights"
  top: "loss_bbox"
  loss_weight: 1
}
layer {
  name: "rpn_conv/3x3"
  type: "Convolution"
  bottom: "conv5_3"
  top: "rpn/output"
  param {
    lr_mult: 0
    decay_mult: 0
  }
  param {
    lr_mult: 0
    decay_mult: 0
  }
  convolution_param {
    num_output: 512
    pad: 1
    kernel_size: 3
    stride: 1
    weight_filler {
      type: "gaussian"
      std: 0.01
    }
    bias_filler {
      type: "constant"
      value: 0
    }
  }
}
layer {
  name: "rpn_relu/3x3"
  type: "ReLU"
  bottom: "rpn/output"
  top: "rpn/output"
}
layer {
  name: "rpn_cls_score"
  type: "Convolution"
  bottom: "rpn/output"
  top: "rpn_cls_score"
  param {
    lr_mult: 0
    decay_mult: 0
  }
  param {
    lr_mult: 0
    decay_mult: 0
  }
  convolution_param {
    num_output: 18
    pad: 0
    kernel_size: 1
    stride: 1
    weight_filler {
      type: "gaussian"
      std: 0.01
    }
    bias_filler {
      type: "constant"
      value: 0
    }
  }
}
layer {
  name: "rpn_bbox_pred"
  type: "Convolution"
  bottom: "rpn/output"
  top: "rpn_bbox_pred"
  param {
    lr_mult: 0
    decay_mult: 0
  }
  param {
    lr_mult: 0
    decay_mult: 0
  }
  convolution_param {
    num_output: 36
    pad: 0
    kernel_size: 1
    stride: 1
    weight_filler {
      type: "gaussian"
      std: 0.01
    }
    bias_filler {
      type: "constant"
      value: 0
    }
  }
}
layer {
  name: "silence_rpn_cls_score"
  type: "Silence"
  bottom: "rpn_cls_score"
}
layer {
  name: "silence_rpn_bbox_pred"
  type: "Silence"
  bottom: "rpn_bbox_pred"
}
I0522 15:09:02.562754  3634 layer_factory.hpp:77] Creating layer data
I0522 15:09:02.563309  3634 net.cpp:84] Creating Layer data
I0522 15:09:02.563316  3634 net.cpp:380] data -> data
I0522 15:09:02.563323  3634 net.cpp:380] data -> rois
I0522 15:09:02.563328  3634 net.cpp:380] data -> labels
I0522 15:09:02.563331  3634 net.cpp:380] data -> bbox_targets
I0522 15:09:02.563334  3634 net.cpp:380] data -> bbox_inside_weights
I0522 15:09:02.563338  3634 net.cpp:380] data -> bbox_outside_weights
RoiDataLayer: name_to_top: {'bbox_inside_weights': 4, 'labels': 2, 'rois': 1, 'bbox_targets': 3, 'bbox_outside_weights': 5, 'data': 0}
I0522 15:09:02.564404  3634 net.cpp:122] Setting up data
I0522 15:09:02.564414  3634 net.cpp:129] Top shape: 2 3 600 1000 (3600000)
I0522 15:09:02.564417  3634 net.cpp:129] Top shape: 1 5 (5)
I0522 15:09:02.564420  3634 net.cpp:129] Top shape: 1 (1)
I0522 15:09:02.564424  3634 net.cpp:129] Top shape: 1 12 (12)
I0522 15:09:02.564440  3634 net.cpp:129] Top shape: 1 12 (12)
I0522 15:09:02.564442  3634 net.cpp:129] Top shape: 1 12 (12)
I0522 15:09:02.564445  3634 net.cpp:137] Memory required for data: 14400168
I0522 15:09:02.564447  3634 layer_factory.hpp:77] Creating layer conv1_1
I0522 15:09:02.564471  3634 net.cpp:84] Creating Layer conv1_1
I0522 15:09:02.564473  3634 net.cpp:406] conv1_1 <- data
I0522 15:09:02.564478  3634 net.cpp:380] conv1_1 -> conv1_1
I0522 15:09:03.137464  3634 net.cpp:122] Setting up conv1_1
I0522 15:09:03.137507  3634 net.cpp:129] Top shape: 2 64 600 1000 (76800000)
I0522 15:09:03.137509  3634 net.cpp:137] Memory required for data: 321600168
I0522 15:09:03.137521  3634 layer_factory.hpp:77] Creating layer relu1_1
I0522 15:09:03.137531  3634 net.cpp:84] Creating Layer relu1_1
I0522 15:09:03.137533  3634 net.cpp:406] relu1_1 <- conv1_1
I0522 15:09:03.137557  3634 net.cpp:367] relu1_1 -> conv1_1 (in-place)
I0522 15:09:03.137712  3634 net.cpp:122] Setting up relu1_1
I0522 15:09:03.137718  3634 net.cpp:129] Top shape: 2 64 600 1000 (76800000)
I0522 15:09:03.137720  3634 net.cpp:137] Memory required for data: 628800168
I0522 15:09:03.137722  3634 layer_factory.hpp:77] Creating layer conv1_2
I0522 15:09:03.137728  3634 net.cpp:84] Creating Layer conv1_2
I0522 15:09:03.137730  3634 net.cpp:406] conv1_2 <- conv1_1
I0522 15:09:03.137733  3634 net.cpp:380] conv1_2 -> conv1_2
I0522 15:09:03.139438  3634 net.cpp:122] Setting up conv1_2
I0522 15:09:03.139448  3634 net.cpp:129] Top shape: 2 64 600 1000 (76800000)
I0522 15:09:03.139451  3634 net.cpp:137] Memory required for data: 936000168
I0522 15:09:03.139456  3634 layer_factory.hpp:77] Creating layer relu1_2
I0522 15:09:03.139461  3634 net.cpp:84] Creating Layer relu1_2
I0522 15:09:03.139464  3634 net.cpp:406] relu1_2 <- conv1_2
I0522 15:09:03.139467  3634 net.cpp:367] relu1_2 -> conv1_2 (in-place)
I0522 15:09:03.139573  3634 net.cpp:122] Setting up relu1_2
I0522 15:09:03.139578  3634 net.cpp:129] Top shape: 2 64 600 1000 (76800000)
I0522 15:09:03.139580  3634 net.cpp:137] Memory required for data: 1243200168
I0522 15:09:03.139582  3634 layer_factory.hpp:77] Creating layer pool1
I0522 15:09:03.139586  3634 net.cpp:84] Creating Layer pool1
I0522 15:09:03.139588  3634 net.cpp:406] pool1 <- conv1_2
I0522 15:09:03.139591  3634 net.cpp:380] pool1 -> pool1
I0522 15:09:03.139621  3634 net.cpp:122] Setting up pool1
I0522 15:09:03.139626  3634 net.cpp:129] Top shape: 2 64 300 500 (19200000)
I0522 15:09:03.139626  3634 net.cpp:137] Memory required for data: 1320000168
I0522 15:09:03.139628  3634 layer_factory.hpp:77] Creating layer conv2_1
I0522 15:09:03.139632  3634 net.cpp:84] Creating Layer conv2_1
I0522 15:09:03.139636  3634 net.cpp:406] conv2_1 <- pool1
I0522 15:09:03.139662  3634 net.cpp:380] conv2_1 -> conv2_1
I0522 15:09:03.140941  3634 net.cpp:122] Setting up conv2_1
I0522 15:09:03.140950  3634 net.cpp:129] Top shape: 2 128 300 500 (38400000)
I0522 15:09:03.140952  3634 net.cpp:137] Memory required for data: 1473600168
I0522 15:09:03.140959  3634 layer_factory.hpp:77] Creating layer relu2_1
I0522 15:09:03.140962  3634 net.cpp:84] Creating Layer relu2_1
I0522 15:09:03.140964  3634 net.cpp:406] relu2_1 <- conv2_1
I0522 15:09:03.140967  3634 net.cpp:367] relu2_1 -> conv2_1 (in-place)
I0522 15:09:03.141106  3634 net.cpp:122] Setting up relu2_1
I0522 15:09:03.141113  3634 net.cpp:129] Top shape: 2 128 300 500 (38400000)
I0522 15:09:03.141114  3634 net.cpp:137] Memory required for data: 1627200168
I0522 15:09:03.141116  3634 layer_factory.hpp:77] Creating layer conv2_2
I0522 15:09:03.141121  3634 net.cpp:84] Creating Layer conv2_2
I0522 15:09:03.141124  3634 net.cpp:406] conv2_2 <- conv2_1
I0522 15:09:03.141126  3634 net.cpp:380] conv2_2 -> conv2_2
I0522 15:09:03.141928  3634 net.cpp:122] Setting up conv2_2
I0522 15:09:03.141937  3634 net.cpp:129] Top shape: 2 128 300 500 (38400000)
I0522 15:09:03.141939  3634 net.cpp:137] Memory required for data: 1780800168
I0522 15:09:03.141943  3634 layer_factory.hpp:77] Creating layer relu2_2
I0522 15:09:03.141947  3634 net.cpp:84] Creating Layer relu2_2
I0522 15:09:03.141949  3634 net.cpp:406] relu2_2 <- conv2_2
I0522 15:09:03.141952  3634 net.cpp:367] relu2_2 -> conv2_2 (in-place)
I0522 15:09:03.142091  3634 net.cpp:122] Setting up relu2_2
I0522 15:09:03.142097  3634 net.cpp:129] Top shape: 2 128 300 500 (38400000)
I0522 15:09:03.142098  3634 net.cpp:137] Memory required for data: 1934400168
I0522 15:09:03.142102  3634 layer_factory.hpp:77] Creating layer pool2
I0522 15:09:03.142104  3634 net.cpp:84] Creating Layer pool2
I0522 15:09:03.142107  3634 net.cpp:406] pool2 <- conv2_2
I0522 15:09:03.142109  3634 net.cpp:380] pool2 -> pool2
I0522 15:09:03.142149  3634 net.cpp:122] Setting up pool2
I0522 15:09:03.142153  3634 net.cpp:129] Top shape: 2 128 150 250 (9600000)
I0522 15:09:03.142155  3634 net.cpp:137] Memory required for data: 1972800168
I0522 15:09:03.142158  3634 layer_factory.hpp:77] Creating layer conv3_1
I0522 15:09:03.142161  3634 net.cpp:84] Creating Layer conv3_1
I0522 15:09:03.142163  3634 net.cpp:406] conv3_1 <- pool2
I0522 15:09:03.142166  3634 net.cpp:380] conv3_1 -> conv3_1
I0522 15:09:03.143409  3634 net.cpp:122] Setting up conv3_1
I0522 15:09:03.143417  3634 net.cpp:129] Top shape: 2 256 150 250 (19200000)
I0522 15:09:03.143419  3634 net.cpp:137] Memory required for data: 2049600168
I0522 15:09:03.143425  3634 layer_factory.hpp:77] Creating layer relu3_1
I0522 15:09:03.143429  3634 net.cpp:84] Creating Layer relu3_1
I0522 15:09:03.143431  3634 net.cpp:406] relu3_1 <- conv3_1
I0522 15:09:03.143435  3634 net.cpp:367] relu3_1 -> conv3_1 (in-place)
I0522 15:09:03.143682  3634 net.cpp:122] Setting up relu3_1
I0522 15:09:03.143688  3634 net.cpp:129] Top shape: 2 256 150 250 (19200000)
I0522 15:09:03.143692  3634 net.cpp:137] Memory required for data: 2126400168
I0522 15:09:03.143692  3634 layer_factory.hpp:77] Creating layer conv3_2
I0522 15:09:03.143697  3634 net.cpp:84] Creating Layer conv3_2
I0522 15:09:03.143699  3634 net.cpp:406] conv3_2 <- conv3_1
I0522 15:09:03.143703  3634 net.cpp:380] conv3_2 -> conv3_2
I0522 15:09:03.144975  3634 net.cpp:122] Setting up conv3_2
I0522 15:09:03.144984  3634 net.cpp:129] Top shape: 2 256 150 250 (19200000)
I0522 15:09:03.144985  3634 net.cpp:137] Memory required for data: 2203200168
I0522 15:09:03.144989  3634 layer_factory.hpp:77] Creating layer relu3_2
I0522 15:09:03.144992  3634 net.cpp:84] Creating Layer relu3_2
I0522 15:09:03.144995  3634 net.cpp:406] relu3_2 <- conv3_2
I0522 15:09:03.144999  3634 net.cpp:367] relu3_2 -> conv3_2 (in-place)
I0522 15:09:03.145253  3634 net.cpp:122] Setting up relu3_2
I0522 15:09:03.145261  3634 net.cpp:129] Top shape: 2 256 150 250 (19200000)
I0522 15:09:03.145262  3634 net.cpp:137] Memory required for data: 2280000168
I0522 15:09:03.145264  3634 layer_factory.hpp:77] Creating layer conv3_3
I0522 15:09:03.145269  3634 net.cpp:84] Creating Layer conv3_3
I0522 15:09:03.145272  3634 net.cpp:406] conv3_3 <- conv3_2
I0522 15:09:03.145274  3634 net.cpp:380] conv3_3 -> conv3_3
I0522 15:09:03.146675  3634 net.cpp:122] Setting up conv3_3
I0522 15:09:03.146684  3634 net.cpp:129] Top shape: 2 256 150 250 (19200000)
I0522 15:09:03.146687  3634 net.cpp:137] Memory required for data: 2356800168
I0522 15:09:03.146690  3634 layer_factory.hpp:77] Creating layer relu3_3
I0522 15:09:03.146694  3634 net.cpp:84] Creating Layer relu3_3
I0522 15:09:03.146697  3634 net.cpp:406] relu3_3 <- conv3_3
I0522 15:09:03.146700  3634 net.cpp:367] relu3_3 -> conv3_3 (in-place)
I0522 15:09:03.146847  3634 net.cpp:122] Setting up relu3_3
I0522 15:09:03.146852  3634 net.cpp:129] Top shape: 2 256 150 250 (19200000)
I0522 15:09:03.146853  3634 net.cpp:137] Memory required for data: 2433600168
I0522 15:09:03.146855  3634 layer_factory.hpp:77] Creating layer pool3
I0522 15:09:03.146859  3634 net.cpp:84] Creating Layer pool3
I0522 15:09:03.146862  3634 net.cpp:406] pool3 <- conv3_3
I0522 15:09:03.146864  3634 net.cpp:380] pool3 -> pool3
I0522 15:09:03.146905  3634 net.cpp:122] Setting up pool3
I0522 15:09:03.146909  3634 net.cpp:129] Top shape: 2 256 75 125 (4800000)
I0522 15:09:03.146911  3634 net.cpp:137] Memory required for data: 2452800168
I0522 15:09:03.146914  3634 layer_factory.hpp:77] Creating layer conv4_1
I0522 15:09:03.146917  3634 net.cpp:84] Creating Layer conv4_1
I0522 15:09:03.146919  3634 net.cpp:406] conv4_1 <- pool3
I0522 15:09:03.146922  3634 net.cpp:380] conv4_1 -> conv4_1
I0522 15:09:03.149979  3634 net.cpp:122] Setting up conv4_1
I0522 15:09:03.149994  3634 net.cpp:129] Top shape: 2 512 75 125 (9600000)
I0522 15:09:03.149996  3634 net.cpp:137] Memory required for data: 2491200168
I0522 15:09:03.150002  3634 layer_factory.hpp:77] Creating layer relu4_1
I0522 15:09:03.150008  3634 net.cpp:84] Creating Layer relu4_1
I0522 15:09:03.150010  3634 net.cpp:406] relu4_1 <- conv4_1
I0522 15:09:03.150014  3634 net.cpp:367] relu4_1 -> conv4_1 (in-place)
I0522 15:09:03.150130  3634 net.cpp:122] Setting up relu4_1
I0522 15:09:03.150136  3634 net.cpp:129] Top shape: 2 512 75 125 (9600000)
I0522 15:09:03.150138  3634 net.cpp:137] Memory required for data: 2529600168
I0522 15:09:03.150141  3634 layer_factory.hpp:77] Creating layer conv4_2
I0522 15:09:03.150146  3634 net.cpp:84] Creating Layer conv4_2
I0522 15:09:03.150147  3634 net.cpp:406] conv4_2 <- conv4_1
I0522 15:09:03.150151  3634 net.cpp:380] conv4_2 -> conv4_2
I0522 15:09:03.153211  3634 net.cpp:122] Setting up conv4_2
I0522 15:09:03.153228  3634 net.cpp:129] Top shape: 2 512 75 125 (9600000)
I0522 15:09:03.153230  3634 net.cpp:137] Memory required for data: 2568000168
I0522 15:09:03.153239  3634 layer_factory.hpp:77] Creating layer relu4_2
I0522 15:09:03.153244  3634 net.cpp:84] Creating Layer relu4_2
I0522 15:09:03.153246  3634 net.cpp:406] relu4_2 <- conv4_2
I0522 15:09:03.153250  3634 net.cpp:367] relu4_2 -> conv4_2 (in-place)
I0522 15:09:03.153360  3634 net.cpp:122] Setting up relu4_2
I0522 15:09:03.153367  3634 net.cpp:129] Top shape: 2 512 75 125 (9600000)
I0522 15:09:03.153368  3634 net.cpp:137] Memory required for data: 2606400168
I0522 15:09:03.153370  3634 layer_factory.hpp:77] Creating layer conv4_3
I0522 15:09:03.153375  3634 net.cpp:84] Creating Layer conv4_3
I0522 15:09:03.153378  3634 net.cpp:406] conv4_3 <- conv4_2
I0522 15:09:03.153380  3634 net.cpp:380] conv4_3 -> conv4_3
I0522 15:09:03.156499  3634 net.cpp:122] Setting up conv4_3
I0522 15:09:03.156533  3634 net.cpp:129] Top shape: 2 512 75 125 (9600000)
I0522 15:09:03.156535  3634 net.cpp:137] Memory required for data: 2644800168
I0522 15:09:03.156541  3634 layer_factory.hpp:77] Creating layer relu4_3
I0522 15:09:03.156548  3634 net.cpp:84] Creating Layer relu4_3
I0522 15:09:03.156550  3634 net.cpp:406] relu4_3 <- conv4_3
I0522 15:09:03.156554  3634 net.cpp:367] relu4_3 -> conv4_3 (in-place)
I0522 15:09:03.156702  3634 net.cpp:122] Setting up relu4_3
I0522 15:09:03.156708  3634 net.cpp:129] Top shape: 2 512 75 125 (9600000)
I0522 15:09:03.156709  3634 net.cpp:137] Memory required for data: 2683200168
I0522 15:09:03.156711  3634 layer_factory.hpp:77] Creating layer pool4
I0522 15:09:03.156714  3634 net.cpp:84] Creating Layer pool4
I0522 15:09:03.156718  3634 net.cpp:406] pool4 <- conv4_3
I0522 15:09:03.156719  3634 net.cpp:380] pool4 -> pool4
I0522 15:09:03.156762  3634 net.cpp:122] Setting up pool4
I0522 15:09:03.156766  3634 net.cpp:129] Top shape: 2 512 38 63 (2451456)
I0522 15:09:03.156769  3634 net.cpp:137] Memory required for data: 2693005992
I0522 15:09:03.156770  3634 layer_factory.hpp:77] Creating layer conv5_1
I0522 15:09:03.156775  3634 net.cpp:84] Creating Layer conv5_1
I0522 15:09:03.156777  3634 net.cpp:406] conv5_1 <- pool4
I0522 15:09:03.156780  3634 net.cpp:380] conv5_1 -> conv5_1
I0522 15:09:03.159960  3634 net.cpp:122] Setting up conv5_1
I0522 15:09:03.159978  3634 net.cpp:129] Top shape: 2 512 38 63 (2451456)
I0522 15:09:03.159981  3634 net.cpp:137] Memory required for data: 2702811816
I0522 15:09:03.159986  3634 layer_factory.hpp:77] Creating layer relu5_1
I0522 15:09:03.159992  3634 net.cpp:84] Creating Layer relu5_1
I0522 15:09:03.159996  3634 net.cpp:406] relu5_1 <- conv5_1
I0522 15:09:03.159999  3634 net.cpp:367] relu5_1 -> conv5_1 (in-place)
I0522 15:09:03.160271  3634 net.cpp:122] Setting up relu5_1
I0522 15:09:03.160279  3634 net.cpp:129] Top shape: 2 512 38 63 (2451456)
I0522 15:09:03.160281  3634 net.cpp:137] Memory required for data: 2712617640
I0522 15:09:03.160284  3634 layer_factory.hpp:77] Creating layer conv5_2
I0522 15:09:03.160290  3634 net.cpp:84] Creating Layer conv5_2
I0522 15:09:03.160291  3634 net.cpp:406] conv5_2 <- conv5_1
I0522 15:09:03.160295  3634 net.cpp:380] conv5_2 -> conv5_2
I0522 15:09:03.163147  3634 net.cpp:122] Setting up conv5_2
I0522 15:09:03.163164  3634 net.cpp:129] Top shape: 2 512 38 63 (2451456)
I0522 15:09:03.163166  3634 net.cpp:137] Memory required for data: 2722423464
I0522 15:09:03.163172  3634 layer_factory.hpp:77] Creating layer relu5_2
I0522 15:09:03.163177  3634 net.cpp:84] Creating Layer relu5_2
I0522 15:09:03.163180  3634 net.cpp:406] relu5_2 <- conv5_2
I0522 15:09:03.163183  3634 net.cpp:367] relu5_2 -> conv5_2 (in-place)
I0522 15:09:03.163491  3634 net.cpp:122] Setting up relu5_2
I0522 15:09:03.163498  3634 net.cpp:129] Top shape: 2 512 38 63 (2451456)
I0522 15:09:03.163516  3634 net.cpp:137] Memory required for data: 2732229288
I0522 15:09:03.163517  3634 layer_factory.hpp:77] Creating layer conv5_3
I0522 15:09:03.163524  3634 net.cpp:84] Creating Layer conv5_3
I0522 15:09:03.163527  3634 net.cpp:406] conv5_3 <- conv5_2
I0522 15:09:03.163532  3634 net.cpp:380] conv5_3 -> conv5_3
I0522 15:09:03.166885  3634 net.cpp:122] Setting up conv5_3
I0522 15:09:03.166903  3634 net.cpp:129] Top shape: 2 512 38 63 (2451456)
I0522 15:09:03.166905  3634 net.cpp:137] Memory required for data: 2742035112
I0522 15:09:03.166911  3634 layer_factory.hpp:77] Creating layer relu5_3
I0522 15:09:03.166918  3634 net.cpp:84] Creating Layer relu5_3
I0522 15:09:03.166920  3634 net.cpp:406] relu5_3 <- conv5_3
I0522 15:09:03.166924  3634 net.cpp:367] relu5_3 -> conv5_3 (in-place)
I0522 15:09:03.167078  3634 net.cpp:122] Setting up relu5_3
I0522 15:09:03.167083  3634 net.cpp:129] Top shape: 2 512 38 63 (2451456)
I0522 15:09:03.167085  3634 net.cpp:137] Memory required for data: 2751840936
I0522 15:09:03.167088  3634 layer_factory.hpp:77] Creating layer conv5_3_relu5_3_0_split
I0522 15:09:03.167090  3634 net.cpp:84] Creating Layer conv5_3_relu5_3_0_split
I0522 15:09:03.167093  3634 net.cpp:406] conv5_3_relu5_3_0_split <- conv5_3
I0522 15:09:03.167096  3634 net.cpp:380] conv5_3_relu5_3_0_split -> conv5_3_relu5_3_0_split_0
I0522 15:09:03.167099  3634 net.cpp:380] conv5_3_relu5_3_0_split -> conv5_3_relu5_3_0_split_1
I0522 15:09:03.167141  3634 net.cpp:122] Setting up conv5_3_relu5_3_0_split
I0522 15:09:03.167145  3634 net.cpp:129] Top shape: 2 512 38 63 (2451456)
I0522 15:09:03.167147  3634 net.cpp:129] Top shape: 2 512 38 63 (2451456)
I0522 15:09:03.167150  3634 net.cpp:137] Memory required for data: 2771452584
I0522 15:09:03.167151  3634 layer_factory.hpp:77] Creating layer roi_pool5
I0522 15:09:03.167158  3634 net.cpp:84] Creating Layer roi_pool5
I0522 15:09:03.167160  3634 net.cpp:406] roi_pool5 <- conv5_3_relu5_3_0_split_0
I0522 15:09:03.167186  3634 net.cpp:406] roi_pool5 <- rois
I0522 15:09:03.167189  3634 net.cpp:380] roi_pool5 -> pool5
I0522 15:09:03.167212  3634 roi_pooling_layer.cpp:30] Spatial scale: 0.0625
I0522 15:09:03.167243  3634 net.cpp:122] Setting up roi_pool5
I0522 15:09:03.167260  3634 net.cpp:129] Top shape: 1 512 7 7 (25088)
I0522 15:09:03.167263  3634 net.cpp:137] Memory required for data: 2771552936
I0522 15:09:03.167264  3634 layer_factory.hpp:77] Creating layer fc6
I0522 15:09:03.167268  3634 net.cpp:84] Creating Layer fc6
I0522 15:09:03.167289  3634 net.cpp:406] fc6 <- pool5
I0522 15:09:03.167291  3634 net.cpp:380] fc6 -> fc6
I0522 15:09:03.271013  3634 net.cpp:122] Setting up fc6
I0522 15:09:03.271035  3634 net.cpp:129] Top shape: 1 4096 (4096)
I0522 15:09:03.271037  3634 net.cpp:137] Memory required for data: 2771569320
I0522 15:09:03.271044  3634 layer_factory.hpp:77] Creating layer relu6
I0522 15:09:03.271051  3634 net.cpp:84] Creating Layer relu6
I0522 15:09:03.271054  3634 net.cpp:406] relu6 <- fc6
I0522 15:09:03.271059  3634 net.cpp:367] relu6 -> fc6 (in-place)
I0522 15:09:03.271230  3634 net.cpp:122] Setting up relu6
I0522 15:09:03.271235  3634 net.cpp:129] Top shape: 1 4096 (4096)
I0522 15:09:03.271237  3634 net.cpp:137] Memory required for data: 2771585704
I0522 15:09:03.271239  3634 layer_factory.hpp:77] Creating layer drop6
I0522 15:09:03.271250  3634 net.cpp:84] Creating Layer drop6
I0522 15:09:03.271251  3634 net.cpp:406] drop6 <- fc6
I0522 15:09:03.271255  3634 net.cpp:367] drop6 -> fc6 (in-place)
I0522 15:09:03.271272  3634 net.cpp:122] Setting up drop6
I0522 15:09:03.271276  3634 net.cpp:129] Top shape: 1 4096 (4096)
I0522 15:09:03.271277  3634 net.cpp:137] Memory required for data: 2771602088
I0522 15:09:03.271279  3634 layer_factory.hpp:77] Creating layer fc7
I0522 15:09:03.271283  3634 net.cpp:84] Creating Layer fc7
I0522 15:09:03.271286  3634 net.cpp:406] fc7 <- fc6
I0522 15:09:03.271288  3634 net.cpp:380] fc7 -> fc7
I0522 15:09:03.289261  3634 net.cpp:122] Setting up fc7
I0522 15:09:03.289283  3634 net.cpp:129] Top shape: 1 4096 (4096)
I0522 15:09:03.289284  3634 net.cpp:137] Memory required for data: 2771618472
I0522 15:09:03.289291  3634 layer_factory.hpp:77] Creating layer relu7
I0522 15:09:03.289297  3634 net.cpp:84] Creating Layer relu7
I0522 15:09:03.289301  3634 net.cpp:406] relu7 <- fc7
I0522 15:09:03.289305  3634 net.cpp:367] relu7 -> fc7 (in-place)
I0522 15:09:03.289472  3634 net.cpp:122] Setting up relu7
I0522 15:09:03.289482  3634 net.cpp:129] Top shape: 1 4096 (4096)
I0522 15:09:03.289484  3634 net.cpp:137] Memory required for data: 2771634856
I0522 15:09:03.289486  3634 layer_factory.hpp:77] Creating layer drop7
I0522 15:09:03.289490  3634 net.cpp:84] Creating Layer drop7
I0522 15:09:03.289492  3634 net.cpp:406] drop7 <- fc7
I0522 15:09:03.289495  3634 net.cpp:367] drop7 -> fc7 (in-place)
I0522 15:09:03.289515  3634 net.cpp:122] Setting up drop7
I0522 15:09:03.289518  3634 net.cpp:129] Top shape: 1 4096 (4096)
I0522 15:09:03.289520  3634 net.cpp:137] Memory required for data: 2771651240
I0522 15:09:03.289522  3634 layer_factory.hpp:77] Creating layer fc7_drop7_0_split
I0522 15:09:03.289526  3634 net.cpp:84] Creating Layer fc7_drop7_0_split
I0522 15:09:03.289528  3634 net.cpp:406] fc7_drop7_0_split <- fc7
I0522 15:09:03.289531  3634 net.cpp:380] fc7_drop7_0_split -> fc7_drop7_0_split_0
I0522 15:09:03.289535  3634 net.cpp:380] fc7_drop7_0_split -> fc7_drop7_0_split_1
I0522 15:09:03.289561  3634 net.cpp:122] Setting up fc7_drop7_0_split
I0522 15:09:03.289563  3634 net.cpp:129] Top shape: 1 4096 (4096)
I0522 15:09:03.289566  3634 net.cpp:129] Top shape: 1 4096 (4096)
I0522 15:09:03.289567  3634 net.cpp:137] Memory required for data: 2771684008
I0522 15:09:03.289569  3634 layer_factory.hpp:77] Creating layer cls_score
I0522 15:09:03.289573  3634 net.cpp:84] Creating Layer cls_score
I0522 15:09:03.289575  3634 net.cpp:406] cls_score <- fc7_drop7_0_split_0
I0522 15:09:03.289578  3634 net.cpp:380] cls_score -> cls_score
I0522 15:09:03.289729  3634 net.cpp:122] Setting up cls_score
I0522 15:09:03.289734  3634 net.cpp:129] Top shape: 1 3 (3)
I0522 15:09:03.289736  3634 net.cpp:137] Memory required for data: 2771684020
I0522 15:09:03.289739  3634 layer_factory.hpp:77] Creating layer bbox_pred
I0522 15:09:03.289743  3634 net.cpp:84] Creating Layer bbox_pred
I0522 15:09:03.289746  3634 net.cpp:406] bbox_pred <- fc7_drop7_0_split_1
I0522 15:09:03.289748  3634 net.cpp:380] bbox_pred -> bbox_pred
I0522 15:09:03.290103  3634 net.cpp:122] Setting up bbox_pred
I0522 15:09:03.290107  3634 net.cpp:129] Top shape: 1 12 (12)
I0522 15:09:03.290109  3634 net.cpp:137] Memory required for data: 2771684068
I0522 15:09:03.290117  3634 layer_factory.hpp:77] Creating layer loss_cls
I0522 15:09:03.290122  3634 net.cpp:84] Creating Layer loss_cls
I0522 15:09:03.290124  3634 net.cpp:406] loss_cls <- cls_score
I0522 15:09:03.290127  3634 net.cpp:406] loss_cls <- labels
I0522 15:09:03.290129  3634 net.cpp:380] loss_cls -> loss_cls
…
I0522 15:09:03.290596  3634 net.cpp:129] Top shape: (1)
I0522 15:09:03.290598  3634 net.cpp:132]     with loss weight 1
I0522 15:09:03.290601  3634 net.cpp:137] Memory required for data: 2771684076
I0522 15:09:03.290602  3634 layer_factory.hpp:77] Creating layer rpn_conv/3x3
I0522 15:09:03.290608  3634 net.cpp:84] Creating Layer rpn_conv/3x3
I0522 15:09:03.290611  3634 net.cpp:406] rpn_conv/3x3 <- conv5_3_relu5_3_0_split_1
I0522 15:09:03.290614  3634 net.cpp:380] rpn_conv/3x3 -> rpn/output
I0522 15:09:03.306666  3634 net.cpp:122] Setting up rpn_conv/3x3
I0522 15:09:03.306681  3634 net.cpp:129] Top shape: 2 512 38 63 (2451456)
I0522 15:09:03.306684  3634 net.cpp:137] Memory required for data: 2781489900
I0522 15:09:03.306689  3634 layer_factory.hpp:77] Creating layer rpn_relu/3x3
I0522 15:09:03.306696  3634 net.cpp:84] Creating Layer rpn_relu/3x3
I0522 15:09:03.306699  3634 net.cpp:406] rpn_relu/3x3 <- rpn/output
I0522 15:09:03.306704  3634 net.cpp:367] rpn_relu/3x3 -> rpn/output (in-place)
I0522 15:09:03.306823  3634 net.cpp:122] Setting up rpn_relu/3x3
I0522 15:09:03.306828  3634 net.cpp:129] Top shape: 2 512 38 63 (2451456)
I0522 15:09:03.306831  3634 net.cpp:137] Memory required for data: 2791295724
I0522 15:09:03.306833  3634 layer_factory.hpp:77] Creating layer rpn/output_rpn_relu/3x3_0_split
I0522 15:09:03.306836  3634 net.cpp:84] Creating Layer rpn/output_rpn_relu/3x3_0_split
I0522 15:09:03.306838  3634 net.cpp:406] rpn/output_rpn_relu/3x3_0_split <- rpn/output
I0522 15:09:03.306843  3634 net.cpp:380] rpn/output_rpn_relu/3x3_0_split -> rpn/output_rpn_relu/3x3_0_split_0
I0522 15:09:03.306845  3634 net.cpp:380] rpn/output_rpn_relu/3x3_0_split -> rpn/output_rpn_relu/3x3_0_split_1
I0522 15:09:03.306874  3634 net.cpp:122] Setting up rpn/output_rpn_relu/3x3_0_split
I0522 15:09:03.306877  3634 net.cpp:129] Top shape: 2 512 38 63 (2451456)
I0522 15:09:03.306879  3634 net.cpp:129] Top shape: 2 512 38 63 (2451456)
I0522 15:09:03.306881  3634 net.cpp:137] Memory required for data: 2810907372
I0522 15:09:03.306883  3634 layer_factory.hpp:77] Creating layer rpn_cls_score
I0522 15:09:03.306890  3634 net.cpp:84] Creating Layer rpn_cls_score
I0522 15:09:03.306891  3634 net.cpp:406] rpn_cls_score <- rpn/output_rpn_relu/3x3_0_split_0
I0522 15:09:03.306895  3634 net.cpp:380] rpn_cls_score -> rpn_cls_score
I0522 15:09:03.307585  3634 net.cpp:122] Setting up rpn_cls_score
I0522 15:09:03.307593  3634 net.cpp:129] Top shape: 2 18 38 63 (86184)
I0522 15:09:03.307595  3634 net.cpp:137] Memory required for data: 2811252108
I0522 15:09:03.307600  3634 layer_factory.hpp:77] Creating layer rpn_bbox_pred
I0522 15:09:03.307605  3634 net.cpp:84] Creating Layer rpn_bbox_pred
I0522 15:09:03.307608  3634 net.cpp:406] rpn_bbox_pred <- rpn/output_rpn_relu/3x3_0_split_1
I0522 15:09:03.307612  3634 net.cpp:380] rpn_bbox_pred -> rpn_bbox_pred
I0522 15:09:03.308346  3634 net.cpp:122] Setting up rpn_bbox_pred
I0522 15:09:03.308353  3634 net.cpp:129] Top shape: 2 36 38 63 (172368)
I0522 15:09:03.308357  3634 net.cpp:137] Memory required for data: 2811941580
I0522 15:09:03.308360  3634 layer_factory.hpp:77] Creating layer silence_rpn_cls_score
I0522 15:09:03.308363  3634 net.cpp:84] Creating Layer silence_rpn_cls_score
I0522 15:09:03.308367  3634 net.cpp:406] silence_rpn_cls_score <- rpn_cls_score
I0522 15:09:03.308369  3634 net.cpp:122] Setting up silence_rpn_cls_score
…
I0522 15:47:30.103962  4169 upgrade_proto.cpp:72] Successfully upgraded file specified using deprecated input fields.
W0522 15:47:30.103965  4169 upgrade_proto.cpp:74] Note that future Caffe releases will only support input layers and not input fields.
I0522 15:47:30.104096  4169 net.cpp:51] Initializing net from parameters: 
name: "VGG_ILSVRC_16_layers"
state {
  phase: TEST
  level: 0
}
layer {
  name: "input"
  type: "Input"
  top: "data"
  top: "im_info"
  input_param {
    shape {
      dim: 1
      dim: 3
      dim: 224
      dim: 224
    }
    shape {
      dim: 1
      dim: 3
    }
  }
}
layer {
  name: "conv1_1"
  type: "Convolution"
  bottom: "data"
  top: "conv1_1"
  convolution_param {
    num_output: 64
    pad: 1
    kernel_size: 3
  }
}
layer {
  name: "relu1_1"
  type: "ReLU"
  bottom: "conv1_1"
  top: "conv1_1"
}
layer {
  name: "conv1_2"
  type: "Convolution"
  bottom: "conv1_1"
  top: "conv1_2"
  convolution_param {
    num_output: 64
    pad: 1
    kernel_size: 3
  }
}
layer {
  name: "relu1_2"
  type: "ReLU"
  bottom: "conv1_2"
  top: "conv1_2"
}
layer {
  name: "pool1"
  type: "Pooling"
  bottom: "conv1_2"
  top: "pool1"
  pooling_param {
    pool: MAX
    kernel_size: 2
    stride: 2
  }
}
layer {
  name: "conv2_1"
  type: "Convolution"
  bottom: "pool1"
  top: "conv2_1"
  convolution_param {
    num_output: 128
    pad: 1
    kernel_size: 3
  }
}
layer {
  name: "relu2_1"
  type: "ReLU"
  bottom: "conv2_1"
  top: "conv2_1"
}
layer {
  name: "conv2_2"
  type: "Convolution"
  bottom: "conv2_1"
  top: "conv2_2"
  convolution_param {
    num_output: 128
    pad: 1
    kernel_size: 3
  }
}
layer {
  name: "relu2_2"
  type: "ReLU"
  bottom: "conv2_2"
  top: "conv2_2"
}
layer {
  name: "pool2"
  type: "Pooling"
  bottom: "conv2_2"
  top: "pool2"
  pooling_param {
    pool: MAX
    kernel_size: 2
    stride: 2
  }
}
layer {
  name: "conv3_1"
  type: "Convolution"
  bottom: "pool2"
  top: "conv3_1"
  convolution_param {
    num_output: 256
    pad: 1
    kernel_size: 3
  }
}
layer {
  name: "relu3_1"
  type: "ReLU"
  bottom: "conv3_1"
  top: "conv3_1"
}
layer {
  name: "conv3_2"
  type: "Convolution"
  bottom: "conv3_1"
  top: "conv3_2"
  convolution_param {
    num_output: 256
    pad: 1
    kernel_size: 3
  }
}
layer {
  name: "relu3_2"
  type: "ReLU"
  bottom: "conv3_2"
  top: "conv3_2"
}
layer {
  name: "conv3_3"
  type: "Convolution"
  bottom: "conv3_2"
  top: "conv3_3"
  convolution_param {
    num_output: 256
    pad: 1
    kernel_size: 3
  }
}
layer {
  name: "relu3_3"
  type: "ReLU"
  bottom: "conv3_3"
  top: "conv3_3"
}
layer {
  name: "pool3"
  type: "Pooling"
  bottom: "conv3_3"
  top: "pool3"
  pooling_param {
    pool: MAX
    kernel_size: 2
    stride: 2
  }
}
layer {
  name: "conv4_1"
  type: "Convolution"
  bottom: "pool3"
  top: "conv4_1"
  convolution_param {
    num_output: 512
    pad: 1
    kernel_size: 3
  }
}
layer {
  name: "relu4_1"
  type: "ReLU"
  bottom: "conv4_1"
  top: "conv4_1"
}
layer {
  name: "conv4_2"
  type: "Convolution"
  bottom: "conv4_1"
  top: "conv4_2"
  convolution_param {
    num_output: 512
    pad: 1
    kernel_size: 3
  }
}
layer {
  name: "relu4_2"
  type: "ReLU"
  bottom: "conv4_2"
  top: "conv4_2"
}
layer {
  name: "conv4_3"
  type: "Convolution"
  bottom: "conv4_2"
  top: "conv4_3"
  convolution_param {
    num_output: 512
    pad: 1
    kernel_size: 3
  }
}
layer {
  name: "relu4_3"
  type: "ReLU"
  bottom: "conv4_3"
  top: "conv4_3"
}
layer {
  name: "pool4"
  type: "Pooling"
  bottom: "conv4_3"
  top: "pool4"
  pooling_param {
    pool: MAX
    kernel_size: 2
    stride: 2
  }
}
layer {
  name: "conv5_1"
  type: "Convolution"
  bottom: "pool4"
  top: "conv5_1"
  convolution_param {
    num_output: 512
    pad: 1
    kernel_size: 3
  }
}
layer {
  name: "relu5_1"
  type: "ReLU"
  bottom: "conv5_1"
  top: "conv5_1"
}
layer {
  name: "conv5_2"
  type: "Convolution"
  bottom: "conv5_1"
  top: "conv5_2"
  convolution_param {
    num_output: 512
    pad: 1
    kernel_size: 3
  }
}
layer {
  name: "relu5_2"
  type: "ReLU"
  bottom: "conv5_2"
  top: "conv5_2"
}
layer {
  name: "conv5_3"
  type: "Convolution"
  bottom: "conv5_2"
  top: "conv5_3"
  convolution_param {
    num_output: 512
    pad: 1
    kernel_size: 3
  }
}
layer {
  name: "relu5_3"
  type: "ReLU"
  bottom: "conv5_3"
  top: "conv5_3"
}
layer {
  name: "rpn_conv/3x3"
  type: "Convolution"
  bottom: "conv5_3"
  top: "rpn/output"
  convolution_param {
    num_output: 512
    pad: 1
    kernel_size: 3
    stride: 1
  }
}
layer {
  name: "rpn_relu/3x3"
  type: "ReLU"
  bottom: "rpn/output"
  top: "rpn/output"
}
layer {
  name: "rpn_cls_score"
  type: "Convolution"
  bottom: "rpn/output"
  top: "rpn_cls_score"
  convolution_param {
    num_output: 18
    pad: 0
    kernel_size: 1
    stride: 1
  }
}
layer {
  name: "rpn_bbox_pred"
  type: "Convolution"
  bottom: "rpn/output"
  top: "rpn_bbox_pred"
  convolution_param {
    num_output: 36
    pad: 0
    kernel_size: 1
    stride: 1
  }
}
layer {
  name: "rpn_cls_score_reshape"
  type: "Reshape"
  bottom: "rpn_cls_score"
  top: "rpn_cls_score_reshape"
  reshape_param {
    shape {
      dim: 0
      dim: 2
      dim: -1
      dim: 0
    }
  }
}
layer {
  name: "rpn_cls_prob"
  type: "Softmax"
  bottom: "rpn_cls_score_reshape"
  top: "rpn_cls_prob"
}
layer {
  name: "rpn_cls_prob_reshape"
  type: "Reshape"
  bottom: "rpn_cls_prob"
  top: "rpn_cls_prob_reshape"
  reshape_param {
    shape {
      dim: 0
      dim: 18
      dim: -1
      dim: 0
    }
  }
}
layer {
  name: "proposal"
  type: "Python"
  bottom: "rpn_cls_prob_reshape"
  bottom: "rpn_bbox_pred"
  bottom: "im_info"
  top: "rois"
  python_param {
    module: "rpn.proposal_layer"
    layer: "ProposalLayer"
    param_str: "\'feat_stride\': 16"
  }
}
layer {
  name: "roi_pool5"
  type: "ROIPooling"
  bottom: "conv5_3"
  bottom: "rois"
  top: "pool5"
  roi_pooling_param {
    pooled_h: 7
    pooled_w: 7
    spatial_scale: 0.0625
  }
}
layer {
  name: "fc6"
  type: "InnerProduct"
  bottom: "pool5"
  top: "fc6"
  inner_product_param {
    num_output: 4096
  }
}
layer {
  name: "relu6"
  type: "ReLU"
  bottom: "fc6"
  top: "fc6"
}
layer {
  name: "fc7"
  type: "InnerProduct"
  bottom: "fc6"
  top: "fc7"
  inner_product_param {
    num_output: 4096
  }
}
layer {
  name: "relu7"
  type: "ReLU"
  bottom: "fc7"
  top: "fc7"
}
layer {
  name: "cls_score"
  type: "InnerProduct"
  bottom: "fc7"
  top: "cls_score"
  inner_product_param {
    num_output: 3
  }
}
layer {
  name: "bbox_pred"
  type: "InnerProduct"
  bottom: "fc7"
  top: "bbox_pred"
  inner_product_param {
    num_output: 12
  }
}
layer {
  name: "cls_prob"
  type: "Softmax"
  bottom: "cls_score"
  top: "cls_prob"
}
I0522 15:47:30.104203  4169 layer_factory.hpp:77] Creating layer input
I0522 15:47:30.104212  4169 net.cpp:84] Creating Layer input
I0522 15:47:30.104229  4169 net.cpp:380] input -> data
I0522 15:47:30.104236  4169 net.cpp:380] input -> im_info
I0522 15:47:41.576798  4169 net.cpp:122] Setting up input
I0522 15:47:41.576831  4169 net.cpp:129] Top shape: 1 3 224 224 (150528)
I0522 15:47:41.576835  4169 net.cpp:129] Top shape: 1 3 (3)
I0522 15:47:41.576838  4169 net.cpp:137] Memory required for data: 602124
I0522 15:47:41.576843  4169 layer_factory.hpp:77] Creating layer conv1_1
I0522 15:47:41.576870  4169 net.cpp:84] Creating Layer conv1_1
I0522 15:47:41.576874  4169 net.cpp:406] conv1_1 <- data
I0522 15:47:41.576894  4169 net.cpp:380] conv1_1 -> conv1_1
I0522 15:47:41.714417  4169 net.cpp:122] Setting up conv1_1
I0522 15:47:41.714450  4169 net.cpp:129] Top shape: 1 64 224 224 (3211264)
I0522 15:47:41.714452  4169 net.cpp:137] Memory required for data: 13447180
I0522 15:47:41.714463  4169 layer_factory.hpp:77] Creating layer relu1_1
I0522 15:47:41.714486  4169 net.cpp:84] Creating Layer relu1_1
I0522 15:47:41.714488  4169 net.cpp:406] relu1_1 <- conv1_1
I0522 15:47:41.714493  4169 net.cpp:367] relu1_1 -> conv1_1 (in-place)
I0522 15:47:41.714656  4169 net.cpp:122] Setting up relu1_1
I0522 15:47:41.714661  4169 net.cpp:129] Top shape: 1 64 224 224 (3211264)
I0522 15:47:41.714678  4169 net.cpp:137] Memory required for data: 26292236
I0522 15:47:41.714679  4169 layer_factory.hpp:77] Creating layer conv1_2
I0522 15:47:41.714685  4169 net.cpp:84] Creating Layer conv1_2
I0522 15:47:41.714702  4169 net.cpp:406] conv1_2 <- conv1_1
I0522 15:47:41.714705  4169 net.cpp:380] conv1_2 -> conv1_2
I0522 15:47:41.715319  4169 net.cpp:122] Setting up conv1_2
I0522 15:47:41.715327  4169 net.cpp:129] Top shape: 1 64 224 224 (3211264)
I0522 15:47:41.715342  4169 net.cpp:137] Memory required for data: 39137292
I0522 15:47:41.715348  4169 layer_factory.hpp:77] Creating layer relu1_2
I0522 15:47:41.715351  4169 net.cpp:84] Creating Layer relu1_2
I0522 15:47:41.715368  4169 net.cpp:406] relu1_2 <- conv1_2
I0522 15:47:41.715370  4169 net.cpp:367] relu1_2 -> conv1_2 (in-place)
I0522 15:47:41.715524  4169 net.cpp:122] Setting up relu1_2
I0522 15:47:41.715529  4169 net.cpp:129] Top shape: 1 64 224 224 (3211264)
I0522 15:47:41.715530  4169 net.cpp:137] Memory required for data: 51982348
I0522 15:47:41.715548  4169 layer_factory.hpp:77] Creating layer pool1
I0522 15:47:41.715550  4169 net.cpp:84] Creating Layer pool1
I0522 15:47:41.715553  4169 net.cpp:406] pool1 <- conv1_2
I0522 15:47:41.715555  4169 net.cpp:380] pool1 -> pool1
I0522 15:47:41.715610  4169 net.cpp:122] Setting up pool1
I0522 15:47:41.715615  4169 net.cpp:129] Top shape: 1 64 112 112 (802816)
I0522 15:47:41.715616  4169 net.cpp:137] Memory required for data: 55193612
I0522 15:47:41.715617  4169 layer_factory.hpp:77] Creating layer conv2_1
I0522 15:47:41.715621  4169 net.cpp:84] Creating Layer conv2_1
I0522 15:47:41.715636  4169 net.cpp:406] conv2_1 <- pool1
I0522 15:47:41.715638  4169 net.cpp:380] conv2_1 -> conv2_1
I0522 15:47:41.717186  4169 net.cpp:122] Setting up conv2_1
I0522 15:47:41.717193  4169 net.cpp:129] Top shape: 1 128 112 112 (1605632)
I0522 15:47:41.717211  4169 net.cpp:137] Memory required for data: 61616140
I0522 15:47:41.717217  4169 layer_factory.hpp:77] Creating layer relu2_1
I0522 15:47:41.717236  4169 net.cpp:84] Creating Layer relu2_1
I0522 15:47:41.717238  4169 net.cpp:406] relu2_1 <- conv2_1
I0522 15:47:41.717241  4169 net.cpp:367] relu2_1 -> conv2_1 (in-place)
I0522 15:47:41.717401  4169 net.cpp:122] Setting up relu2_1
I0522 15:47:41.717422  4169 net.cpp:129] Top shape: 1 128 112 112 (1605632)
I0522 15:47:41.717424  4169 net.cpp:137] Memory required for data: 68038668
I0522 15:47:41.717442  4169 layer_factory.hpp:77] Creating layer conv2_2
I0522 15:47:41.717447  4169 net.cpp:84] Creating Layer conv2_2
I0522 15:47:41.717449  4169 net.cpp:406] conv2_2 <- conv2_1
I0522 15:47:41.717468  4169 net.cpp:380] conv2_2 -> conv2_2
I0522 15:47:41.718425  4169 net.cpp:122] Setting up conv2_2
I0522 15:47:41.718451  4169 net.cpp:129] Top shape: 1 128 112 112 (1605632)
I0522 15:47:41.718453  4169 net.cpp:137] Memory required for data: 74461196
I0522 15:47:41.718459  4169 layer_factory.hpp:77] Creating layer relu2_2
I0522 15:47:41.718478  4169 net.cpp:84] Creating Layer relu2_2
I0522 15:47:41.718482  4169 net.cpp:406] relu2_2 <- conv2_2
I0522 15:47:41.718504  4169 net.cpp:367] relu2_2 -> conv2_2 (in-place)
I0522 15:47:41.719022  4169 net.cpp:122] Setting up relu2_2
I0522 15:47:41.719028  4169 net.cpp:129] Top shape: 1 128 112 112 (1605632)
I0522 15:47:41.719045  4169 net.cpp:137] Memory required for data: 80883724
I0522 15:47:41.719048  4169 layer_factory.hpp:77] Creating layer pool2
I0522 15:47:41.719050  4169 net.cpp:84] Creating Layer pool2
I0522 15:47:41.719053  4169 net.cpp:406] pool2 <- conv2_2
I0522 15:47:41.719070  4169 net.cpp:380] pool2 -> pool2
I0522 15:47:41.719112  4169 net.cpp:122] Setting up pool2
I0522 15:47:41.719116  4169 net.cpp:129] Top shape: 1 128 56 56 (401408)
I0522 15:47:41.719117  4169 net.cpp:137] Memory required for data: 82489356
I0522 15:47:41.719120  4169 layer_factory.hpp:77] Creating layer conv3_1
I0522 15:47:41.719136  4169 net.cpp:84] Creating Layer conv3_1
I0522 15:47:41.719138  4169 net.cpp:406] conv3_1 <- pool2
I0522 15:47:41.719141  4169 net.cpp:380] conv3_1 -> conv3_1
I0522 15:47:41.719954  4169 net.cpp:122] Setting up conv3_1
I0522 15:47:41.719961  4169 net.cpp:129] Top shape: 1 256 56 56 (802816)
I0522 15:47:41.719979  4169 net.cpp:137] Memory required for data: 85700620
I0522 15:47:41.719983  4169 layer_factory.hpp:77] Creating layer relu3_1
I0522 15:47:41.720001  4169 net.cpp:84] Creating Layer relu3_1
I0522 15:47:41.720003  4169 net.cpp:406] relu3_1 <- conv3_1
I0522 15:47:41.720006  4169 net.cpp:367] relu3_1 -> conv3_1 (in-place)
I0522 15:47:41.720360  4169 net.cpp:122] Setting up relu3_1
I0522 15:47:41.720366  4169 net.cpp:129] Top shape: 1 256 56 56 (802816)
I0522 15:47:41.720383  4169 net.cpp:137] Memory required for data: 88911884
I0522 15:47:41.720386  4169 layer_factory.hpp:77] Creating layer conv3_2
I0522 15:47:41.720391  4169 net.cpp:84] Creating Layer conv3_2
I0522 15:47:41.720392  4169 net.cpp:406] conv3_2 <- conv3_1
I0522 15:47:41.720410  4169 net.cpp:380] conv3_2 -> conv3_2
I0522 15:47:41.721822  4169 net.cpp:122] Setting up conv3_2
I0522 15:47:41.721832  4169 net.cpp:129] Top shape: 1 256 56 56 (802816)
I0522 15:47:41.721833  4169 net.cpp:137] Memory required for data: 92123148
I0522 15:47:41.721853  4169 layer_factory.hpp:77] Creating layer relu3_2
I0522 15:47:41.721856  4169 net.cpp:84] Creating Layer relu3_2
I0522 15:47:41.721858  4169 net.cpp:406] relu3_2 <- conv3_2
I0522 15:47:41.721861  4169 net.cpp:367] relu3_2 -> conv3_2 (in-place)
I0522 15:47:41.722121  4169 net.cpp:122] Setting up relu3_2
I0522 15:47:41.722128  4169 net.cpp:129] Top shape: 1 256 56 56 (802816)
I0522 15:47:41.722129  4169 net.cpp:137] Memory required for data: 95334412
I0522 15:47:41.722132  4169 layer_factory.hpp:77] Creating layer conv3_3
I0522 15:47:41.722151  4169 net.cpp:84] Creating Layer conv3_3
I0522 15:47:41.722153  4169 net.cpp:406] conv3_3 <- conv3_2
I0522 15:47:41.722157  4169 net.cpp:380] conv3_3 -> conv3_3
I0522 15:47:41.723520  4169 net.cpp:122] Setting up conv3_3
I0522 15:47:41.723528  4169 net.cpp:129] Top shape: 1 256 56 56 (802816)
I0522 15:47:41.723546  4169 net.cpp:137] Memory required for data: 98545676
I0522 15:47:41.723549  4169 layer_factory.hpp:77] Creating layer relu3_3
I0522 15:47:41.723554  4169 net.cpp:84] Creating Layer relu3_3
I0522 15:47:41.723572  4169 net.cpp:406] relu3_3 <- conv3_3
I0522 15:47:41.723575  4169 net.cpp:367] relu3_3 -> conv3_3 (in-place)
I0522 15:47:41.723739  4169 net.cpp:122] Setting up relu3_3
I0522 15:47:41.723744  4169 net.cpp:129] Top shape: 1 256 56 56 (802816)
I0522 15:47:41.723760  4169 net.cpp:137] Memory required for data: 101756940
I0522 15:47:41.723762  4169 layer_factory.hpp:77] Creating layer pool3
I0522 15:47:41.723767  4169 net.cpp:84] Creating Layer pool3
I0522 15:47:41.723768  4169 net.cpp:406] pool3 <- conv3_3
I0522 15:47:41.723786  4169 net.cpp:380] pool3 -> pool3
I0522 15:47:41.723811  4169 net.cpp:122] Setting up pool3
I0522 15:47:41.723814  4169 net.cpp:129] Top shape: 1 256 28 28 (200704)
I0522 15:47:41.723816  4169 net.cpp:137] Memory required for data: 102559756
I0522 15:47:41.723819  4169 layer_factory.hpp:77] Creating layer conv4_1
I0522 15:47:41.723822  4169 net.cpp:84] Creating Layer conv4_1
I0522 15:47:41.723824  4169 net.cpp:406] conv4_1 <- pool3
I0522 15:47:41.723826  4169 net.cpp:380] conv4_1 -> conv4_1
I0522 15:47:41.726235  4169 net.cpp:122] Setting up conv4_1
I0522 15:47:41.726264  4169 net.cpp:129] Top shape: 1 512 28 28 (401408)
I0522 15:47:41.726267  4169 net.cpp:137] Memory required for data: 104165388
I0522 15:47:41.726272  4169 layer_factory.hpp:77] Creating layer relu4_1
I0522 15:47:41.726277  4169 net.cpp:84] Creating Layer relu4_1
I0522 15:47:41.726279  4169 net.cpp:406] relu4_1 <- conv4_1
I0522 15:47:41.726297  4169 net.cpp:367] relu4_1 -> conv4_1 (in-place)
I0522 15:47:41.726469  4169 net.cpp:122] Setting up relu4_1
I0522 15:47:41.726474  4169 net.cpp:129] Top shape: 1 512 28 28 (401408)
I0522 15:47:41.726490  4169 net.cpp:137] Memory required for data: 105771020
I0522 15:47:41.726491  4169 layer_factory.hpp:77] Creating layer conv4_2
I0522 15:47:41.726496  4169 net.cpp:84] Creating Layer conv4_2
I0522 15:47:41.726498  4169 net.cpp:406] conv4_2 <- conv4_1
I0522 15:47:41.726516  4169 net.cpp:380] conv4_2 -> conv4_2
I0522 15:47:41.729593  4169 net.cpp:122] Setting up conv4_2
I0522 15:47:41.729621  4169 net.cpp:129] Top shape: 1 512 28 28 (401408)
I0522 15:47:41.729624  4169 net.cpp:137] Memory required for data: 107376652
I0522 15:47:41.729632  4169 layer_factory.hpp:77] Creating layer relu4_2
I0522 15:47:41.729653  4169 net.cpp:84] Creating Layer relu4_2
I0522 15:47:41.729655  4169 net.cpp:406] relu4_2 <- conv4_2
I0522 15:47:41.729660  4169 net.cpp:367] relu4_2 -> conv4_2 (in-place)
I0522 15:47:41.729797  4169 net.cpp:122] Setting up relu4_2
I0522 15:47:41.729802  4169 net.cpp:129] Top shape: 1 512 28 28 (401408)
I0522 15:47:41.729804  4169 net.cpp:137] Memory required for data: 108982284
I0522 15:47:41.729806  4169 layer_factory.hpp:77] Creating layer conv4_3
I0522 15:47:41.729826  4169 net.cpp:84] Creating Layer conv4_3
I0522 15:47:41.729828  4169 net.cpp:406] conv4_3 <- conv4_2
I0522 15:47:41.729831  4169 net.cpp:380] conv4_3 -> conv4_3
I0522 15:47:41.732827  4169 net.cpp:122] Setting up conv4_3
I0522 15:47:41.732861  4169 net.cpp:129] Top shape: 1 512 28 28 (401408)
I0522 15:47:41.732862  4169 net.cpp:137] Memory required for data: 110587916
I0522 15:47:41.732867  4169 layer_factory.hpp:77] Creating layer relu4_3
I0522 15:47:41.732873  4169 net.cpp:84] Creating Layer relu4_3
I0522 15:47:41.732875  4169 net.cpp:406] relu4_3 <- conv4_3
I0522 15:47:41.732893  4169 net.cpp:367] relu4_3 -> conv4_3 (in-place)
I0522 15:47:41.733057  4169 net.cpp:122] Setting up relu4_3
I0522 15:47:41.733062  4169 net.cpp:129] Top shape: 1 512 28 28 (401408)
I0522 15:47:41.733079  4169 net.cpp:137] Memory required for data: 112193548
I0522 15:47:41.733080  4169 layer_factory.hpp:77] Creating layer pool4
I0522 15:47:41.733084  4169 net.cpp:84] Creating Layer pool4
I0522 15:47:41.733086  4169 net.cpp:406] pool4 <- conv4_3
I0522 15:47:41.733089  4169 net.cpp:380] pool4 -> pool4
I0522 15:47:41.733130  4169 net.cpp:122] Setting up pool4
I0522 15:47:41.733134  4169 net.cpp:129] Top shape: 1 512 14 14 (100352)
I0522 15:47:41.733136  4169 net.cpp:137] Memory required for data: 112594956
I0522 15:47:41.733139  4169 layer_factory.hpp:77] Creating layer conv5_1
I0522 15:47:41.733142  4169 net.cpp:84] Creating Layer conv5_1
I0522 15:47:41.733144  4169 net.cpp:406] conv5_1 <- pool4
I0522 15:47:41.733147  4169 net.cpp:380] conv5_1 -> conv5_1
I0522 15:47:41.736119  4169 net.cpp:122] Setting up conv5_1
I0522 15:47:41.736151  4169 net.cpp:129] Top shape: 1 512 14 14 (100352)
I0522 15:47:41.736155  4169 net.cpp:137] Memory required for data: 112996364
I0522 15:47:41.736160  4169 layer_factory.hpp:77] Creating layer relu5_1
I0522 15:47:41.736181  4169 net.cpp:84] Creating Layer relu5_1
I0522 15:47:41.736184  4169 net.cpp:406] relu5_1 <- conv5_1
I0522 15:47:41.736189  4169 net.cpp:367] relu5_1 -> conv5_1 (in-place)
I0522 15:47:41.736452  4169 net.cpp:122] Setting up relu5_1
I0522 15:47:41.736459  4169 net.cpp:129] Top shape: 1 512 14 14 (100352)
I0522 15:47:41.736475  4169 net.cpp:137] Memory required for data: 113397772
I0522 15:47:41.736479  4169 layer_factory.hpp:77] Creating layer conv5_2
I0522 15:47:41.736483  4169 net.cpp:84] Creating Layer conv5_2
I0522 15:47:41.736500  4169 net.cpp:406] conv5_2 <- conv5_1
I0522 15:47:41.736505  4169 net.cpp:380] conv5_2 -> conv5_2
I0522 15:47:41.739461  4169 net.cpp:122] Setting up conv5_2
I0522 15:47:41.739490  4169 net.cpp:129] Top shape: 1 512 14 14 (100352)
I0522 15:47:41.739492  4169 net.cpp:137] Memory required for data: 113799180
I0522 15:47:41.739497  4169 layer_factory.hpp:77] Creating layer relu5_2
I0522 15:47:41.739503  4169 net.cpp:84] Creating Layer relu5_2
I0522 15:47:41.739521  4169 net.cpp:406] relu5_2 <- conv5_2
I0522 15:47:41.739524  4169 net.cpp:367] relu5_2 -> conv5_2 (in-place)
I0522 15:47:41.739814  4169 net.cpp:122] Setting up relu5_2
I0522 15:47:41.739821  4169 net.cpp:129] Top shape: 1 512 14 14 (100352)
I0522 15:47:41.739838  4169 net.cpp:137] Memory required for data: 114200588
I0522 15:47:41.739840  4169 layer_factory.hpp:77] Creating layer conv5_3
I0522 15:47:41.739845  4169 net.cpp:84] Creating Layer conv5_3
I0522 15:47:41.739862  4169 net.cpp:406] conv5_3 <- conv5_2
I0522 15:47:41.739866  4169 net.cpp:380] conv5_3 -> conv5_3
I0522 15:47:41.742851  4169 net.cpp:122] Setting up conv5_3
I0522 15:47:41.742882  4169 net.cpp:129] Top shape: 1 512 14 14 (100352)
I0522 15:47:41.742885  4169 net.cpp:137] Memory required for data: 114601996
I0522 15:47:41.742890  4169 layer_factory.hpp:77] Creating layer relu5_3
I0522 15:47:41.742897  4169 net.cpp:84] Creating Layer relu5_3
I0522 15:47:41.742914  4169 net.cpp:406] relu5_3 <- conv5_3
I0522 15:47:41.742918  4169 net.cpp:367] relu5_3 -> conv5_3 (in-place)
I0522 15:47:41.743057  4169 net.cpp:122] Setting up relu5_3
I0522 15:47:41.743062  4169 net.cpp:129] Top shape: 1 512 14 14 (100352)
I0522 15:47:41.743078  4169 net.cpp:137] Memory required for data: 115003404
I0522 15:47:41.743080  4169 layer_factory.hpp:77] Creating layer conv5_3_relu5_3_0_split
I0522 15:47:41.743084  4169 net.cpp:84] Creating Layer conv5_3_relu5_3_0_split
I0522 15:47:41.743086  4169 net.cpp:406] conv5_3_relu5_3_0_split <- conv5_3
I0522 15:47:41.743104  4169 net.cpp:380] conv5_3_relu5_3_0_split -> conv5_3_relu5_3_0_split_0
I0522 15:47:41.743108  4169 net.cpp:380] conv5_3_relu5_3_0_split -> conv5_3_relu5_3_0_split_1
I0522 15:47:41.743134  4169 net.cpp:122] Setting up conv5_3_relu5_3_0_split
I0522 15:47:41.743139  4169 net.cpp:129] Top shape: 1 512 14 14 (100352)
I0522 15:47:41.743140  4169 net.cpp:129] Top shape: 1 512 14 14 (100352)
I0522 15:47:41.743142  4169 net.cpp:137] Memory required for data: 115806220
I0522 15:47:41.743144  4169 layer_factory.hpp:77] Creating layer rpn_conv/3x3
I0522 15:47:41.743151  4169 net.cpp:84] Creating Layer rpn_conv/3x3
I0522 15:47:41.743154  4169 net.cpp:406] rpn_conv/3x3 <- conv5_3_relu5_3_0_split_0
I0522 15:47:41.743156  4169 net.cpp:380] rpn_conv/3x3 -> rpn/output
I0522 15:47:41.746192  4169 net.cpp:122] Setting up rpn_conv/3x3
I0522 15:47:41.746208  4169 net.cpp:129] Top shape: 1 512 14 14 (100352)
I0522 15:47:41.746210  4169 net.cpp:137] Memory required for data: 116207628
I0522 15:47:41.746217  4169 layer_factory.hpp:77] Creating layer rpn_relu/3x3
I0522 15:47:41.746222  4169 net.cpp:84] Creating Layer rpn_relu/3x3
I0522 15:47:41.746224  4169 net.cpp:406] rpn_relu/3x3 <- rpn/output
I0522 15:47:41.746227  4169 net.cpp:367] rpn_relu/3x3 -> rpn/output (in-place)
I0522 15:47:41.746343  4169 net.cpp:122] Setting up rpn_relu/3x3
I0522 15:47:41.746348  4169 net.cpp:129] Top shape: 1 512 14 14 (100352)
I0522 15:47:41.746351  4169 net.cpp:137] Memory required for data: 116609036
I0522 15:47:41.746352  4169 layer_factory.hpp:77] Creating layer rpn/output_rpn_relu/3x3_0_split
I0522 15:47:41.746356  4169 net.cpp:84] Creating Layer rpn/output_rpn_relu/3x3_0_split
I0522 15:47:41.746357  4169 net.cpp:406] rpn/output_rpn_relu/3x3_0_split <- rpn/output
I0522 15:47:41.746361  4169 net.cpp:380] rpn/output_rpn_relu/3x3_0_split -> rpn/output_rpn_relu/3x3_0_split_0
I0522 15:47:41.746364  4169 net.cpp:380] rpn/output_rpn_relu/3x3_0_split -> rpn/output_rpn_relu/3x3_0_split_1
I0522 15:47:41.746389  4169 net.cpp:122] Setting up rpn/output_rpn_relu/3x3_0_split
I0522 15:47:41.746393  4169 net.cpp:129] Top shape: 1 512 14 14 (100352)
I0522 15:47:41.746395  4169 net.cpp:129] Top shape: 1 512 14 14 (100352)
I0522 15:47:41.746397  4169 net.cpp:137] Memory required for data: 117411852
I0522 15:47:41.746399  4169 layer_factory.hpp:77] Creating layer rpn_cls_score
I0522 15:47:41.746403  4169 net.cpp:84] Creating Layer rpn_cls_score
I0522 15:47:41.746405  4169 net.cpp:406] rpn_cls_score <- rpn/output_rpn_relu/3x3_0_split_0
I0522 15:47:41.746408  4169 net.cpp:380] rpn_cls_score -> rpn_cls_score
I0522 15:47:41.747144  4169 net.cpp:122] Setting up rpn_cls_score
I0522 15:47:41.747151  4169 net.cpp:129] Top shape: 1 18 14 14 (3528)
I0522 15:47:41.747153  4169 net.cpp:137] Memory required for data: 117425964
I0522 15:47:41.747157  4169 layer_factory.hpp:77] Creating layer rpn_bbox_pred
I0522 15:47:41.747161  4169 net.cpp:84] Creating Layer rpn_bbox_pred
I0522 15:47:41.747164  4169 net.cpp:406] rpn_bbox_pred <- rpn/output_rpn_relu/3x3_0_split_1
I0522 15:47:41.747167  4169 net.cpp:380] rpn_bbox_pred -> rpn_bbox_pred
I0522 15:47:41.747786  4169 net.cpp:122] Setting up rpn_bbox_pred
I0522 15:47:41.747793  4169 net.cpp:129] Top shape: 1 36 14 14 (7056)
I0522 15:47:41.747795  4169 net.cpp:137] Memory required for data: 117454188
I0522 15:47:41.747799  4169 layer_factory.hpp:77] Creating layer rpn_cls_score_reshape
I0522 15:47:41.747803  4169 net.cpp:84] Creating Layer rpn_cls_score_reshape
I0522 15:47:41.747807  4169 net.cpp:406] rpn_cls_score_reshape <- rpn_cls_score
I0522 15:47:41.747809  4169 net.cpp:380] rpn_cls_score_reshape -> rpn_cls_score_reshape
I0522 15:47:41.747826  4169 net.cpp:122] Setting up rpn_cls_score_reshape
I0522 15:47:41.747829  4169 net.cpp:129] Top shape: 1 2 126 14 (3528)
I0522 15:47:41.747831  4169 net.cpp:137] Memory required for data: 117468300
I0522 15:47:41.747833  4169 layer_factory.hpp:77] Creating layer rpn_cls_prob
I0522 15:47:41.747836  4169 net.cpp:84] Creating Layer rpn_cls_prob
I0522 15:47:41.747838  4169 net.cpp:406] rpn_cls_prob <- rpn_cls_score_reshape
I0522 15:47:41.747841  4169 net.cpp:380] rpn_cls_prob -> rpn_cls_prob
I0522 15:47:41.747983  4169 net.cpp:122] Setting up rpn_cls_prob
I0522 15:47:41.747988  4169 net.cpp:129] Top shape: 1 2 126 14 (3528)
I0522 15:47:41.747990  4169 net.cpp:137] Memory required for data: 117482412
I0522 15:47:41.747992  4169 layer_factory.hpp:77] Creating layer rpn_cls_prob_reshape
I0522 15:47:41.747995  4169 net.cpp:84] Creating Layer rpn_cls_prob_reshape
I0522 15:47:41.747997  4169 net.cpp:406] rpn_cls_prob_reshape <- rpn_cls_prob
I0522 15:47:41.748001  4169 net.cpp:380] rpn_cls_prob_reshape -> rpn_cls_prob_reshape
I0522 15:47:41.748015  4169 net.cpp:122] Setting up rpn_cls_prob_reshape
I0522 15:47:41.748018  4169 net.cpp:129] Top shape: 1 18 14 14 (3528)
I0522 15:47:41.748020  4169 net.cpp:137] Memory required for data: 117496524
I0522 15:47:41.748021  4169 layer_factory.hpp:77] Creating layer proposal
I0522 15:47:41.748287  4169 net.cpp:84] Creating Layer proposal
I0522 15:47:41.748293  4169 net.cpp:406] proposal <- rpn_cls_prob_reshape
I0522 15:47:41.748296  4169 net.cpp:406] proposal <- rpn_bbox_pred
I0522 15:47:41.748298  4169 net.cpp:406] proposal <- im_info
I0522 15:47:41.748302  4169 net.cpp:380] proposal -> rois
I0522 15:47:41.748713  4169 net.cpp:122] Setting up proposal
I0522 15:47:41.748720  4169 net.cpp:129] Top shape: 1 5 (5)
I0522 15:47:41.748723  4169 net.cpp:137] Memory required for data: 117496544
I0522 15:47:41.748724  4169 layer_factory.hpp:77] Creating layer roi_pool5
I0522 15:47:41.748728  4169 net.cpp:84] Creating Layer roi_pool5
I0522 15:47:41.748731  4169 net.cpp:406] roi_pool5 <- conv5_3_relu5_3_0_split_1
I0522 15:47:41.748734  4169 net.cpp:406] roi_pool5 <- rois
I0522 15:47:41.748737  4169 net.cpp:380] roi_pool5 -> pool5
I0522 15:47:41.748741  4169 roi_pooling_layer.cpp:30] Spatial scale: 0.0625
I0522 15:47:41.748770  4169 net.cpp:122] Setting up roi_pool5
I0522 15:47:41.748775  4169 net.cpp:129] Top shape: 1 512 7 7 (25088)
I0522 15:47:41.748776  4169 net.cpp:137] Memory required for data: 117596896
I0522 15:47:41.748778  4169 layer_factory.hpp:77] Creating layer fc6
I0522 15:47:41.748781  4169 net.cpp:84] Creating Layer fc6
I0522 15:47:41.748783  4169 net.cpp:406] fc6 <- pool5
I0522 15:47:41.748786  4169 net.cpp:380] fc6 -> fc6
I0522 15:47:41.852368  4169 net.cpp:122] Setting up fc6
I0522 15:47:41.852391  4169 net.cpp:129] Top shape: 1 4096 (4096)
I0522 15:47:41.852393  4169 net.cpp:137] Memory required for data: 117613280
I0522 15:47:41.852404  4169 layer_factory.hpp:77] Creating layer relu6
I0522 15:47:41.852411  4169 net.cpp:84] Creating Layer relu6
I0522 15:47:41.852412  4169 net.cpp:406] relu6 <- fc6
I0522 15:47:41.852416  4169 net.cpp:367] relu6 -> fc6 (in-place)
I0522 15:47:41.852638  4169 net.cpp:122] Setting up relu6
I0522 15:47:41.852643  4169 net.cpp:129] Top shape: 1 4096 (4096)
I0522 15:47:41.852644  4169 net.cpp:137] Memory required for data: 117629664
I0522 15:47:41.852646  4169 layer_factory.hpp:77] Creating layer fc7
I0522 15:47:41.852650  4169 net.cpp:84] Creating Layer fc7
I0522 15:47:41.852651  4169 net.cpp:406] fc7 <- fc6
I0522 15:47:41.852654  4169 net.cpp:380] fc7 -> fc7
I0522 15:47:41.870271  4169 net.cpp:122] Setting up fc7
I0522 15:47:41.870291  4169 net.cpp:129] Top shape: 1 4096 (4096)
I0522 15:47:41.870293  4169 net.cpp:137] Memory required for data: 117646048
I0522 15:47:41.870301  4169 layer_factory.hpp:77] Creating layer relu7
I0522 15:47:41.870306  4169 net.cpp:84] Creating Layer relu7
I0522 15:47:41.870309  4169 net.cpp:406] relu7 <- fc7
I0522 15:47:41.870313  4169 net.cpp:367] relu7 -> fc7 (in-place)
I0522 15:47:41.870718  4169 net.cpp:122] Setting up relu7
I0522 15:47:41.870724  4169 net.cpp:129] Top shape: 1 4096 (4096)
I0522 15:47:41.870726  4169 net.cpp:137] Memory required for data: 117662432
I0522 15:47:41.870728  4169 layer_factory.hpp:77] Creating layer fc7_relu7_0_split
I0522 15:47:41.870731  4169 net.cpp:84] Creating Layer fc7_relu7_0_split
I0522 15:47:41.870733  4169 net.cpp:406] fc7_relu7_0_split <- fc7
I0522 15:47:41.870736  4169 net.cpp:380] fc7_relu7_0_split -> fc7_relu7_0_split_0
I0522 15:47:41.870740  4169 net.cpp:380] fc7_relu7_0_split -> fc7_relu7_0_split_1
I0522 15:47:41.870798  4169 net.cpp:122] Setting up fc7_relu7_0_split
I0522 15:47:41.870801  4169 net.cpp:129] Top shape: 1 4096 (4096)
I0522 15:47:41.870805  4169 net.cpp:129] Top shape: 1 4096 (4096)
I0522 15:47:41.870805  4169 net.cpp:137] Memory required for data: 117695200
I0522 15:47:41.870820  4169 layer_factory.hpp:77] Creating layer cls_score
I0522 15:47:41.870824  4169 net.cpp:84] Creating Layer cls_score
I0522 15:47:41.870826  4169 net.cpp:406] cls_score <- fc7_relu7_0_split_0
I0522 15:47:41.870843  4169 net.cpp:380] cls_score -> cls_score
I0522 15:47:41.870955  4169 net.cpp:122] Setting up cls_score
I0522 15:47:41.870959  4169 net.cpp:129] Top shape: 1 3 (3)
I0522 15:47:41.870961  4169 net.cpp:137] Memory required for data: 117695212
I0522 15:47:41.870965  4169 layer_factory.hpp:77] Creating layer bbox_pred
I0522 15:47:41.870967  4169 net.cpp:84] Creating Layer bbox_pred
I0522 15:47:41.870968  4169 net.cpp:406] bbox_pred <- fc7_relu7_0_split_1
I0522 15:47:41.870971  4169 net.cpp:380] bbox_pred -> bbox_pred
I0522 15:47:41.871096  4169 net.cpp:122] Setting up bbox_pred
I0522 15:47:41.871100  4169 net.cpp:129] Top shape: 1 12 (12)
I0522 15:47:41.871101  4169 net.cpp:137] Memory required for data: 117695260
I0522 15:47:41.871104  4169 layer_factory.hpp:77] Creating layer cls_prob
I0522 15:47:41.871107  4169 net.cpp:84] Creating Layer cls_prob
I0522 15:47:41.871109  4169 net.cpp:406] cls_prob <- cls_score
I0522 15:47:41.871112  4169 net.cpp:380] cls_prob -> cls_prob
I0522 15:47:41.871299  4169 net.cpp:122] Setting up cls_prob
I0522 15:47:41.871304  4169 net.cpp:129] Top shape: 1 3 (3)
I0522 15:47:41.871304  4169 net.cpp:137] Memory required for data: 117695272
I0522 15:47:41.871306  4169 net.cpp:200] cls_prob does not need backward computation.
I0522 15:47:41.871309  4169 net.cpp:200] bbox_pred does not need backward computation.
I0522 15:47:41.871310  4169 net.cpp:200] cls_score does not need backward computation.
I0522 15:47:41.871312  4169 net.cpp:200] fc7_relu7_0_split does not need backward computation.
…
